NN_Model/1.pth (torch, 180967 bytes, 6 tensors)

weight f4 [256, 42]
0	0xbc12b132	-0.0089533795
1	0x3cd73095	0.026268283
2	0xbc832d72	-0.016012881
3	0xbb99c062	-0.0046921233
4	0xbd124c2c	-0.035717174
5	0x3cc06807	0.023487104
6	0xbd8c2f29	-0.068449326
7	0x3af44cf0	0.0018638652
8	0xbd6c1244	-0.057634607
9	0xbb0b33b0	-0.0021240525
10	0x39b1ec2b	0.0003393603
11	0xbb81ba59	-0.003958982
12	0xbc5b9851	-0.013403014
13	0xbbc19a9a	-0.0059083225
14	0xbd3a2070	-0.04544109
15	0xbc4f7558	-0.012662254
16	0xbd2666b1	-0.040625278
17	0xbd084bf7	-0.03327557
18	0xbca12734	-0.019672014
19	0x3ba1ac41	0.0049338643
20	0xbb748ccf	-0.0037315374
21	0x3b131ce5	0.0022447642
22	0xbc2ebf0b	-0.010665665
23	0xbc254254	-0.010086615
24	0xbb9e78ab	-0.004836162
25	0xbd23de54	-0.04000695
26	0x39b3488f	0.000341956
27	0x3bae1a14	0.0053131673
28	0xbce5f83c	-0.028072469
29	0xbc6361d9	-0.013878309
30	0x3b30fd52	0.002700646
31	0xbd1829f9	-0.037149403
32	0xbb728e4b	-0.0037011083
33	0xbd2a5c02	-0.04159165
34	0xbc27855f	-0.010224669
35	0xbb6c471d	-0.003605313
36	0x3d0957ff	0.033531185
37	0x3aa63dac	0.0012683175
38	0x3d33c1d8	0.043886036
39	0xbcddbe53	-0.027068293
40	0x3cc34aa3	0.0238393
41	0xbb8ff412	-0.004393109
42	0x3d2865a4	0.041112557
43	0x3e2ff7a0	0.17184305
44	0xbda6c554	-0.08143106
45	0xbe76e995	-0.24112542
46	0xbe2a7fb0	-0.16650271
47	0x3d05b135	0.0326397
48	0xbe560d7d	-0.20903583
49	0x3dfc1ea0	0.12310529
50	0xbd13b4bc	-0.036061034
51	0xbcd27b00	-0.025693417
52	0xbda531f8	-0.080661714
53	0xbe4baa95	-0.1988929
54	0xbd51d29e	-0.05122625
55	0xbe7c3fde	-0.24633738
56	0xbe7ccc9b	-0.24687426
57	0xbea577c7	-0.32317945
58	0x3c8e9154	0.017403282
59	0xbebe7839	-0.37201098
60	0x3d7f2cd9	0.06229863
61	0x3d9561c7	0.0729404
62	0xbc0170cf	-0.007900431
63	0xbba68427	-0.0050816718
64	0xbdf1c2f6	-0.11804764
65	0xbe1a0aa4	-0.15043122
66	0x3dbc393c	0.09190604
67	0xbe02d79f	-0.12777565
68	0x3e23edf8	0.16008747
69	0x3df124e3	0.11774614
70	0xbd94c6c6	-0.072644755
71	0x3ea2a3fe	0.3176574
72	0x3e0d9dce	0.13829729
73	0x3e220f59	0.15826167
74	0xbad12106	-0.0015955276
75	0x3e12d397	0.14338528
76	0x3df22643	0.11823704
77	0x3e79b340	0.24384785
78	0xbccd7c74	-0.025083758
79	0x3e803b7b	0.2504538
80	0x3e121534	0.14265901
81	0x3cf9d272	0.030495856
82	0x3c4d2269	0.012520411
83	0x3e29cf3a	0.16582957
84	0xbb00ffb1	-0.0019683654
85	0xbd8cb1fe	-0.06869887
86	0xbcc9f10f	-0.024651079
87	0xbd61ff71	-0.05517525
88	0xbce684c8	-0.028139487
89	0xbba7ee25	-0.0051248246
90	0xbd119681	-0.035543922
91	0x3cb160a8	0.021652535
92	0xbc44e6a6	-0.0120178815
93	0x3cd13b29	0.025540905
94	0xbcf3acc2	-0.029745463
95	0xbcdb1757	-0.026744528
96	0xbd0302ca	-0.03198508
97	0xbccab918	-0.024746463
98	0xbcbd1d27	-0.02308519
99	0xbcd3f96c	-0.02587577
100	0xbcd855f1	-0.026408168
101	0x3b10a507	0.002207102
102	0xbcde8b50	-0.027166039
103	0x3bfaada8	0.007650096
104	0xbc9724de	-0.018450197
105	0xbd05c049	-0.03265408
106	0xbc2f469f	-0.01069799
107	0xbb9e4a41	-0.004830629
108	0xbcf93018	-0.03041844
109	0x3cb1abed	0.021688426
110	0xbcb00335	-0.021485904
111	0xbc5b0466	-0.013367748
112	0xbd178566	-0.036992453
113	0x3c04581e	0.008077649
114	0xbd025ca0	-0.031826615
115	0xbc374f5e	-0.011188356
116	0xbc0aa05d	-0.008461085
117	0x3c6a2551	0.0142911235
118	0xbbb4ba0e	-0.0055153435
119	0x3c9d19bd	0.019177312
120	0xbc866f60	-0.01641053
121	0x3c3ba981	0.011453987
122	0xbbac7583	-0.005263032
123	0x3c0e9f3a	0.008704955
124	0xbc802585	-0.01564289
125	0xbcdc0961	-0.026859941
126	0xbf258ebe	-0.6467093
127	0x3e3df001	0.18548585
128	0xbea60b7d	-0.3243064
129	0x3e237cdf	0.15965603
130	0xbdc37a21	-0.095447786
131	0x3ddabe6b	0.106808506
132	0xbe33f258	-0.17572916
133	0x3b0d98c5	0.002160595
134	0xbf073356	-0.5281271
135	0xbe53b73a	-0.20675364
136	0x3dbbbf4f	0.091673486
137	0x3d551b7a	0.052028157
138	0xbe3cc0ef	-0.18432973
139	0xbc408231	-0.01174979
140	0xbe2a5e32	-0.16637495
141	0x3e23b672	0.15987566
142	0xbd22b407	-0.03972247
143	0x3e8f920b	0.2804111
144	0xbe10adcf	-0.14128803
145	0x3e46b64d	0.1940548
146	0xbdc62dfa	-0.09676738
147	0xbe5f06f2	-0.21779993
148	0xbe759feb	-0.23986785
149	0x3e43d00d	0.19122334
150	0xbdb0f091	-0.086396344
151	0x3e1f9bd5	0.15586789
152	0xbeaed6c5	-0.3414823
153	0x3e1af7f6	0.15133652
154	0xbe64f6b6	-0.22359738
155	0xbe1245f3	-0.14284496
156	0xbdfeeabf	-0.12447118
157	0x3e0fc5ac	0.1404025
158	0xbe8bdf83	-0.27318963
159	0x3e355e56	0.17711768
160	0xbf0d82fc	-0.5527799
161	0xbe2eb2de	-0.1706042
162	0xbee9fc84	-0.45700467
163	0xbd0b8a56	-0.034067474
164	0xbe5fd513	-0.21858625
165	0x3e8c72ea	0.27431422
166	0xbdf93d9e	-0.12169956
167	0x3ed4c4b0	0.4155631
168	0x39fe7c19	0.00048539115
169	0xbcab9776	-0.020946246
170	0xba83eb11	-0.0010064562
171	0xbca8b525	-0.020594189
172	0xbab83e52	-0.0014056659
173	0xbca3e09b	-0.020004561
174	0xb907d0af	-0.00012952344
175	0xbc99357a	-0.018702257
176	0x3b30aacb	0.002695727
177	0xbc935cd9	-0.01798861
178	0xbb20a1b4	-0.0024510445
179	0xbca19a36	-0.019726854
180	0xb9b9a85f	-0.00035411396
181	0xbc952653	-0.018206751
182	0x3a343a68	0.0006875158
183	0xbc9a7ddc	-0.018858843
184	0x3aed3e2b	0.0018100193
185	0xbc9d16b2	-0.019175861
186	0xbab1c1fc	-0.001356184
187	0xbc9a493e	-0.018833753
188	0x3a8d9a98	0.0010803519
189	0xbc91ad96	-0.017782968
190	0x3ab79436	0.0014005962
191	0xbc964157	-0.018341703
192	0x3b02bc57	0.0019948685
193	0xbc969272	-0.018380377
194	0x37c706c9	2.3725808e-05
195	0xbc928fe5	-0.01789088
196	0x3b327f23	0.0027236424
197	0xbc8eece1	-0.017446937
198	0x3b5c3cae	0.0033605504
199	0xbc9ec069	-0.019378858
200	0x3b6cdde1	0.0036142992
201	0xbcaaa6f6	-0.020831566
202	0x3b1196b1	0.0022215063
203	0xbc8b4762	-0.017001811
204	0x3b7cf265	0.0038596627
205	0xbc892679	-0.016741978
206	0x3b877dc6	0.0041348664
207	0xbc9be26f	-0.01902887
208	0x3b92d0fc	0.0044804793
209	0xbca833ff	-0.020532606
210	0xbe94d276	-0.2906682
211	0xbe8d387b	-0.27582154
212	0xbe69da5a	-0.22837201
213	0x3df435bc	0.119243115
214	0xbe034e55	-0.1282285
215	0xbdb87915	-0.090074696
216	0x3e355d16	0.1771129
217	0x3ca80ec3	0.020514851
218	0x3dae4a15	0.08510224
219	0xbe6333a5	-0.2218767
220	0x3dd15f9d	0.10223315
221	0x3e85e027	0.26147577
222	0x3d38dda0	0.045133233
223	0x3e93ac33	0.28842315
224	0x3e11b990	0.14230943
225	0x3eaff34f	0.34365317
226	0x3e68300b	0.22674577
227	0x3e3ac008	0.18237317
228	0xbe431e75	-0.19054587
229	0x3eab20a9	0.33423355
230	0xbd869485	-0.065712966
231	0x3e81e07f	0.2536659
232	0x3d58c1eb	0.05291931
233	0x3e6256b4	0.22103387
234	0x3d252038	0.04031393
235	0xbe3b1833	-0.1827095
236	0xbe7cef2f	-0.24700616
237	0x3d3c13bf	0.04591727
238	0x3e11f64a	0.14254108
239	0xbcd2d005	-0.025733957
240	0x3d310f04	0.04322721
241	0xbe07f0f2	-0.13275507
242	0x3e2f7163	0.17133097
243	0xbf04ec01	-0.51922613
244	0xbe2392f3	-0.15974025
245	0x3df6717d	0.12033365
246	0xbe1db745	-0.15401943
247	0xbd889ff5	-0.066711344
248	0xbe02fea3	-0.12792449
249	0x3b86caec	0.0041135456
250	0x3b480d24	0.003052541
251	0xbde87ce6	-0.113519475
252	0x3e47caef	0.19511007
253	0x3e73dc30	0.23814464
254	0x3ceedcf6	0.029158097
255	0x3ab3b622	0.0013710896

bias f4 [256]
0	0xbc32f04f	-0.010921552
1	0xbd350fbb	-0.044204455
2	0xbc8b27c5	-0.016986737
3	0xbc4ed6e1	-0.012624473
4	0xbca861bd	-0.020554418
5	0x3dc8667e	0.09785174
6	0x3dfdfa62	0.12401272
7	0x3df3dbc5	0.11907152
8	0x3e730fa0	0.23736429
9	0xbc01943e	-0.007908879
10	0x3c8f459e	0.01748925
11	0xbac296cb	-0.0014845965
12	0xbd1bbf91	-0.03802449
13	0x3e0d6084	0.13806349
14	0x3e667f7a	0.22509566
15	0xbc99728a	-0.018731374
16	0x3e1bcc73	0.1521471
17	0xbd5a88d9	-0.053353164
18	0xbe86b1f2	-0.26307636
19	0x3ee2e964	0.44318688
20	0xbcdb9471	-0.02680418
21	0xbe599f7f	-0.21252249
22	0xbb931a06	-0.004489186
23	0xbed02430	-0.4065261
24	0x3ee98d72	0.45615727
25	0x3e16e311	0.14735056
26	0x3d9e606d	0.077332355
27	0xbe3a30fd	-0.1818275
28	0xbe9b1a44	-0.30293477
29	0xba7d42c2	-0.0009661132
30	0xbe6fcf37	-0.2341889
31	0x3d4b9510	0.049702704
32	0x3e786ff7	0.24261461
33	0xbd0642d5	-0.03277858
34	0x3cb33062	0.021873657
35	0x3eaf4266	0.34230345
36	0x3dc06052	0.09393372
37	0xbea14f2f	-0.31505725
38	0x3f2211af	0.63308233
39	0x3e1b627d	0.15174289
40	0x3dc76667	0.097363286
41	0xbbd6353b	-0.0065371073
42	0x3e55591c	0.20834774
43	0xbdbc53f9	-0.09195704
44	0x3e3d0de8	0.18462336
45	0x3d55f858	0.052238792
46	0xbbdb11db	-0.006685478
47	0x3d6c0c32	0.057628818
48	0x3dc6769f	0.09690594
49	0xbe8e04f0	-0.27738142
50	0x3db7fc37	0.08983653
51	0x3e35b5e8	0.17745173
52	0xbeb4d66c	-0.3531984
53	0xbcec4af9	-0.028844343
54	0xbd0ac7bd	-0.03388189
55	0xbd0febb7	-0.035136905
56	0xbd4265d1	-0.04746038
57	0xbc41e271	-0.011833773
58	0x3c8bc0f3	0.017059779
59	0x382dd422	4.144398e-05
60	0x3e683f06	0.22680292
61	0x3da22aa0	0.07918286
62	0x3deb346f	0.1148461
63	0xb83e20c1	-4.5330034e-05
64	0x3d8bdaba	0.06828828
65	0xbe0953cf	-0.13410877
66	0x3e6a06b4	0.2285412
67	0x3d25d776	0.040488683
68	0x3dd46c02	0.10372163
69	0xbd633fff	-0.055480953
70	0xbbf16b6b	-0.0073675415
71	0x3ca16b19	0.019704388
72	0xbe321c18	-0.1739353
73	0x3df525f0	0.11970127
74	0x3ae27f2c	0.0017280332
75	0x3e4500ca	0.19238582
76	0x3e862469	0.26199654
77	0xbccfa3b6	-0.025346618
78	0xbc57289e	-0.0131322425
79	0x3dbd8e6e	0.09255682
80	0x3e6cca55	0.23124059
81	0x3d77c553	0.060490917
82	0xbd8e8690	-0.069592595
83	0x3d0dcb9d	0.03461801
84	0xbca4e37e	-0.020128008
85	0x3eb4ec9d	0.35336772
86	0x3ea0f523	0.31437024
87	0x3e01ed0e	0.12688085
88	0xbc92bf2d	-0.017913425
89	0xbecee190	-0.40406466
90	0xbcc7b41f	-0.02437788
91	0xbec5f356	-0.38662213
92	0x3cdf8282	0.02728391
93	0x3e6f05d9	0.23342074
94	0xbdf22cdf	-0.11824965
95	0x3932da06	0.00017056623
96	0xbe31181d	-0.17294355
97	0x3d596bfa	0.05308149
98	0xbcc02b85	-0.023458252
99	0x3e4e6238	0.20154655
100	0xbe36aa5b	-0.17838423
101	0x3ebd4d15	0.3697287
102	0x3cec592f	0.02885112
103	0x3dcbc911	0.0995046
104	0xbe7f1180	-0.2490902
105	0xbcbf19e3	-0.023327773
106	0x3e6537cf	0.2238457
107	0x3c151ec1	0.009101571
108	0xbcafe14f	-0.02146974
109	0x3e41672a	0.1888701
110	0x3e4b8e14	0.19878417
111	0xbe1a050c	-0.15040988
112	0xbe3e2b73	-0.18571262
113	0x3c3502e0	0.011048049
114	0x3eba7661	0.3641844
115	0xbe031a74	-0.1280306
116	0xba35c1d8	-0.0006933487
117	0x3a99c5a8	0.001173188
118	0xbdbba5f7	-0.09162515
119	0xbdacb7f5	-0.084335245
120	0x3e0b60d9	0.13611163
121	0xbc1df893	-0.009641784
122	0x3c5a10da	0.013309682
123	0x3d808cc5	0.0627685
124	0xbe2e6bc2	-0.17033294
125	0x3d5f76a3	0.0545565
126	0xbe82c5db	-0.25541577
127	0x3e1f93d8	0.15583742
128	0x3bf3cb16	0.007439981
129	0x3e5a5664	0.21322018
130	0xbbc410ec	-0.0059834626
131	0xbe704c4a	-0.23466602
132	0xbd544351	-0.05182201
133	0x3e875965	0.2643539
134	0x3e1681db	0.14697973
135	0xbe98093b	-0.29694542
136	0x3e27fe2f	0.16405557
137	0xbc79d94d	-0.015249562
138	0xbe057b1a	-0.13035241
139	0x3e69a980	0.22818565
140	0xbe14dc36	-0.14537129
141	0x3efb359d	0.4906434
142	0x3ec21c24	0.37912095
143	0xbd11cb02	-0.035593994
144	0x3db9dae3	0.090749525
145	0x3e107d11	0.14110209
146	0xbecc5bc2	-0.39913756
147	0xbd9ae56f	-0.07563292
148	0xbddb8ce0	-0.10720229
149	0x3e11cdfd	0.14238735
150	0xbcc793f7	-0.024362547
151	0xbc245398	-0.010029696
152	0x3e5803f3	0.21095257
153	0x3dd6f95c	0.1049678
154	0xbeafb158	-0.3431499
155	0x3e15f040	0.1464243
156	0xbd637a34	-0.055536464
157	0xbd83d7b1	-0.06437624
158	0x3e5c878a	0.21536079
159	0x3adb4aa1	0.0016730615
160	0x3dce2caf	0.100671165
161	0xb8f27498	-0.000115611765
162	0x3e1a5e9a	0.1507515
163	0xbe57e397	-0.21082912
164	0xbb8fa082	-0.0043831477
165	0x3e0382a8	0.1284281
166	0xbd1d0352	-0.038333245
167	0x3deef41b	0.11667653
168	0x3e0d656b	0.13808219
169	0x3e161bff	0.14659117
170	0x3e8738fd	0.26410666
171	0xbe85af73	-0.2611042
172	0xbbea1a19	-0.0071442244
173	0xbcf8666d	-0.030322278
174	0x3e7007f7	0.23440538
175	0xbe006cbd	-0.1254148
176	0xbc5426db	-0.012948717
177	0xbbcd7a27	-0.006270665
178	0x3e835632	0.256517
179	0x3e4d7017	0.2006229
180	0xbeba0439	-0.36331347
181	0xbd38062e	-0.04492777
182	0x3dce0304	0.10059169
183	0x3da48a82	0.08034231
184	0x3e93d871	0.2887607
185	0x3e20b82e	0.15695259
186	0x3d8b73c0	0.06809187
187	0x3e841386	0.25796145
188	0xbc76d0a0	-0.0150643885
189	0x3e3a5d5e	0.1819968
190	0xbd8c90b0	-0.068635345
191	0xbb6e67df	-0.003637783
192	0xbe8c4274	-0.2739445
193	0x3c265e11	0.010154263
194	0x3e199845	0.14999492
195	0x3cc7967a	0.024363745
196	0x3e8c5436	0.27407998
197	0x3c41568e	0.011800421
198	0xbcccd16c	-0.025002204
199	0x3f097f49	0.53709847
200	0xbe3794e7	-0.17927895
201	0xbcd4a369	-0.025956826
202	0xbd202a6a	-0.03910295
203	0xbdcfc082	-0.1014414
204	0xbe2589c3	-0.16165833
205	0xbe97fe45	-0.2968618
206	0x3e0a4add	0.1350512
207	0x3d8afea2	0.067868486
208	0xbc6b244a	-0.014351914
209	0xbc90e09d	-0.017685229
210	0xbcebc856	-0.028782051
211	0xbbf6e037	-0.0075340527
212	0xbc1b4ec5	-0.009479229
213	0xbd8ffd6b	-0.070307575
214	0x3e6b88ef	0.23001455
215	0xbcf2d6d5	-0.029643456
216	0x3ddb20a4	0.10699585
217	0xbe6cb368	-0.23115313
218	0xbbd6f530	-0.0065599903
219	0xbcc353ee	-0.023843732
220	0x3e3ac587	0.18239413
221	0xbe8e8517	-0.27835914
222	0x3e88f356	0.2674815
223	0xbdf3144c	-0.11869106
224	0x3ea791ac	0.32728326
225	0xbd3ab28d	-0.045580436
226	0xbe4dddf0	-0.20104194
227	0xbd904e7a	-0.07046218
228	0x3d0e5e86	0.034758113
229	0xbe15f14b	-0.14642827
230	0x3ed9a713	0.4251028
231	0xbd93901d	-0.07205222
232	0xbc5c1c8c	-0.0134345405
233	0x3ee73b8f	0.45162627
234	0xbd450284	-0.048098102
235	0xbc901cb9	-0.017591821
236	0xbcd9daf9	-0.026593672
237	0xbc375a1c	-0.011190917
238	0x3c0a5588	0.008443244
239	0x3c9b54aa	0.01896127
240	0x3e43d815	0.19125398
241	0xbdadc1b9	-0.08484215
242	0x3c84ee8c	0.01622703
243	0x3e4beb7a	0.19914046
244	0xbd05c12a	-0.03265492
245	0x3e1c2d8f	0.15251754
246	0x3e01b94a	0.12668338
247	0x3e55b93a	0.2087144
248	0x3e37ebd5	0.17961057
249	0x3dd9ea20	0.10640359
250	0x3e137c09	0.14402784
251	0xbcdef5e8	-0.027216867
252	0xbe447bdb	-0.19187872
253	0xbbdf9e74	-0.006824309
254	0x3e0a128c	0.13483638
255	0xbc47a688	-0.0121857

weight f4 [128, 256]
0	0xbc931e65	-0.01795883
1	0x3e3b3839	0.18283166
2	0xbc811efc	-0.015761845
3	0x3e72864d	0.23684044
4	0x3cd0667e	0.025439497
5	0xbe9ed939	-0.31025103
6	0x3eae5fe0	0.34057522
7	0x3e0322ec	0.1280629
8	0x3ddf4561	0.10901905
9	0xbabfbd4e	-0.0014628561
10	0xbd84a02a	-0.06475861
11	0xbabcd838	-0.00144077
12	0xbba55780	-0.005045831
13	0xbeaaefa5	-0.3338596
14	0xbd66985d	-0.05629765
15	0xbbb6edf7	-0.005582567
16	0xbe709c48	-0.23497117
17	0xbd0d66dc	-0.034521922
18	0x3dd197ea	0.102340534
19	0x3d41df1a	0.047331907
20	0xbcef8ba6	-0.029241394
21	0xbdc6634d	-0.09686909
22	0xbd02f21b	-0.03196917
23	0x3e11dd19	0.14244498
24	0x3d874590	0.06605065
25	0x3e939a74	0.28828776
26	0x3cd8402c	0.026397787
27	0x3d0c323f	0.034227606
28	0x3ca422f9	0.020036208
29	0xbaeb3689	-0.001794533
30	0x3d388a02	0.04505349
31	0xbe727e12	-0.23680905
32	0x3cbc8857	0.02301423
33	0x3bce69d8	0.0062992387
34	0xbbc6b946	-0.006064567
35	0x3caa7fab	0.02081283
36	0xbeb11afb	-0.34590897
37	0xbcc4ec9e	-0.02403861
38	0xbda8bd7a	-0.08239265
39	0xbd08ae40	-0.033369303
40	0x3df7ed26	0.12105779
41	0xbb72ebf0	-0.00370669
42	0x3d39cc20	0.045360684
43	0x3d1473af	0.036243137
44	0x3dc38917	0.09547632
45	0xbbbee426	-0.0058255373
46	0xbacb04d6	-0.0015489112
47	0x3e26414f	0.16235851
48	0xbe783a3b	-0.24240963
49	0xbe445b2a	-0.19175401
50	0xbd3dd050	-0.04634124
51	0xbcd8bf10	-0.026458293
52	0x3e21c586	0.15798005
53	0x3cc9e82a	0.024646837
54	0xbb49f4ed	-0.0030816153
55	0x3c8bca32	0.017064188
56	0x3c750969	0.014955857
57	0xbb0bc370	-0.0021326207
58	0x3e890127	0.26758692
59	0x3d6481e2	0.05578793
60	0xbed2bb11	-0.41158345
61	0x3dbe8bfa	0.09304042
62	0x3e01aa48	0.12662613
63	0xbaed0a28	-0.0018084692
64	0x3e2842f8	0.16431797
65	0xbdf5d545	-0.120035686
66	0x3e3125eb	0.17299621
67	0xbda57dbf	-0.08080625
68	0xbe457149	-0.19281496
69	0x3cdc36c8	0.02688159
70	0x3e31a19d	0.17346807
71	0x3e07e33b	0.13270275
72	0x3eac4d9f	0.3365297
73	0xbe818ceb	-0.25302824
74	0xbd83cc62	-0.06435467
75	0x3c24a950	0.010050133
76	0x3e3d076c	0.18459862
77	0xbbaa236f	-0.0051922123
78	0x3c0732bf	0.008251845
79	0x3d919548	0.07108551
80	0xbc976b9a	-0.018483926
81	0x3e9b7eb6	0.3037011
82	0x3ce35463	0.0277502
83	0x3cfe7223	0.031060284
84	0xbcceb25e	-0.025231536
85	0xbe22d64c	-0.1590206
86	0xbde7a72c	-0.113111824
87	0x3c12acb9	0.008952313
88	0xbc491dd8	-0.012275182
89	0x3e32631c	0.1742062
90	0x3c99a34f	0.01875463
91	0x3e2cb78a	0.1686689
92	0x3c9b9720	0.01899296
93	0xbcb94b9f	-0.022619067
94	0x3d818848	0.06324822
95	0xba3de569	-0.00072439626
96	0x3c8bbb99	0.017057227
97	0xbdcc75be	-0.09983395
98	0xbb99c8f1	-0.0046931435
99	0x3e5dd7c1	0.21664335
100	0x3e151469	0.14558567
101	0xbe24ae1a	-0.1608204
102	0x3cb2baa7	0.021817518
103	0x3d3151e0	0.043290973
104	0x3dca9daa	0.09893353
105	0x3cdd985f	0.027050195
106	0x3ce04ce4	0.027380414
107	0xbd74552f	-0.05965155
108	0x3d5528da	0.052040912
109	0x3e35506f	0.17706464
110	0xbc42c97a	-0.011888856
111	0x3e424c01	0.18974306
112	0xbcb4368d	-0.021998668
113	0xbc98c246	-0.018647324
114	0xbd749659	-0.059713695
115	0xbd0b6b65	-0.034037966
116	0xba807d69	-0.0009803
117	0xbdddcb3f	-0.10829782
118	0x3e8c32b3	0.2738243
119	0x3d61b614	0.055105284
120	0x3e9cf677	0.30656788
121	0xbc9755c4	-0.018473513
122	0x3c7f008f	0.015564098
123	0xbbe053a5	-0.0068459087
124	0x3ef7fbcc	0.48434293
125	0x3e048aec	0.1294362
126	0xbd0a7cbf	-0.033810373
127	0x3e959e84	0.292225
128	0xbdc04da7	-0.09389811
129	0x3d07992f	0.03310507
130	0xbabfc459	-0.001463066
131	0x3bdf3fe0	0.0068130344
132	0x3ba33bd3	0.004981497
133	0xba26afcb	-0.00063585927
134	0xbc06c19a	-0.008224869
135	0x3df563b6	0.11981909
136	0x3d0ab59f	0.033864614
137	0xbb45fede	-0.0030211727
138	0x3df47c23	0.1193774
139	0x3e8ee5c1	0.27909663
140	0x3cb39e34	0.021926023
141	0x3db5d221	0.088779695
142	0x3ea4ec9f	0.32211778
143	0xbce1501e	-0.027504023
144	0x3de3e61d	0.11127875
145	0xbe172330	-0.14759517
146	0xbe7645a7	-0.24050008
147	0x3b268835	0.0025410776
148	0x3cb1c3a7	0.02169974
149	0x3d4b51b3	0.04963846
150	0x3db91c4c	0.090386
151	0x3cc4b7b1	0.024013372
152	0x3d1e1241	0.038591627
153	0xbc94512a	-0.018105108
154	0xbc515b35	-0.012778093
155	0xbd5878fb	-0.05284975
156	0x3e64866d	0.22316904
157	0x3cac4189	0.021027343
158	0x3dc812fd	0.09769247
159	0xbc0fb737	-0.008771709
160	0xbe1f4e95	-0.1555732
161	0x3de4ce44	0.111721545
162	0xbbe12606	-0.006870988
163	0xbdb21571	-0.08695496
164	0xba4da951	-0.00078453595
165	0xbc5b0fc5	-0.013370459
166	0xbca5d208	-0.020241752
167	0xbcfd4306	-0.030915748
168	0x3e2f985a	0.17147961
169	0xbe199eb2	-0.15001944
170	0xbdf1e55f	-0.11811327
171	0x3ba66334	0.005077744
172	0x3c95e062	0.01829547
173	0x3a072973	0.0005156018
174	0x3e3bcfa1	0.18340923
175	0x3b599b2b	0.003320406
176	0x3c8c357e	0.01711535
177	0xbd5b903d	-0.053604353
178	0xbe08fa8e	-0.13376829
179	0xbce43716	-0.027858298
180	0x3dabbf41	0.08386088
181	0xbe1c9a6e	-0.15293285
182	0x3e17fa14	0.14841491
183	0x3c5bd1e0	0.013416737
184	0xbdc0a209	-0.09405906
185	0x3e1c17c1	0.15243436
186	0x3da7b677	0.08189099
187	0xbcb7ace8	-0.022421315
188	0x3d03d8e9	0.032189284
189	0xbe27ec7a	-0.16398802
190	0xbc45a2e7	-0.012062765
191	0xbecb6323	-0.39724073
192	0x3e382790	0.17983842
193	0x3b24c5ba	0.0025142268
194	0x3d78ad30	0.06071204
195	0xba4d05ff	-0.0007821023
196	0x3e8530f8	0.26013923
197	0xb9190958	-0.00014594698
198	0x3bce65dd	0.006298764
199	0xbe107a99	-0.14109267
200	0x3d84a532	0.06476821
201	0x3c41bdf8	0.011825077
202	0x3c699c54	0.014258463
203	0x3d4c262c	0.04984109
204	0x3ce8db14	0.028424777
205	0x3e058ada	0.13041249
206	0x3d3a75b4	0.045522407
207	0x3c3f1a5b	0.0116639985
208	0x3b5b0eaa	0.0033425489
209	0x3c10856a	0.008820871
210	0xbb921e59	-0.004459184
211	0x396c4910	0.00022533932
212	0x3b130dcd	0.0022438646
213	0x3d9c318c	0.07626638
214	0x3e4d5af0	0.20054221
215	0x3c7ca42f	0.015420004
216	0x3b00f170	0.0019675158
217	0x3cec917b	0.028877964
218	0xbda67894	-0.08128467
219	0x3c296721	0.010339529
220	0xbe9bf03c	-0.30456722
221	0x3d9ff867	0.07811051
222	0x3e5d6251	0.21619536
223	0x3d943c2b	0.07238039
224	0xbdee75f7	-0.11643594
225	0xbab9dfac	-0.0014181039
226	0x3e647f41	0.22314169
227	0x3d007b68	0.03136769
228	0xbd90c72b	-0.07069238
229	0x3e5cdfda	0.21569768
230	0x3e8d30d5	0.27576318
231	0xbba46aaf	-0.0050176005
232	0x39ef80c0	0.0004568156
233	0xbcfc2b76	-0.030782443
234	0x3bdfe265	0.0068324083
235	0xbc95abf7	-0.018270476
236	0x3e9a1fa8	0.30102277
237	0xb9b5206c	-0.00034547166
238	0xbd0c04c9	-0.03418425
239	0xbce88504	-0.02838374
240	0xbe20175b	-0.1563391
241	0xb90281c4	-0.00012446108
242	0xb86d7081	-5.660998e-05
243	0xbcf2b04b	-0.029625079
244	0x3d1bf8b6	0.038078986
245	0x3df868f9	0.12129397
246	0xbbf8fc93	-0.0075984686
247	0x3e85b4c8	0.26114488
248	0x3ec16e4b	0.3777946
249	0xbdd2454c	-0.102671236
250	0x3db353bd	0.08756206
251	0xbc9e9366	-0.019357394
252	0x3cc48512	0.023989234
253	0xbacae81d	-0.0015480552
254	0x3e805b2f	0.25069568
255	0xbb0dd10a	-0.002163949

bias f4 [128]
0	0xbd3ad8c1	-0.04561687
1	0xbd30e64d	-0.043188382
2	0xbe42e6a7	-0.190333
3	0x3e5f463a	0.21804133
4	0x3d456b3f	0.04819798
5	0x3e4f1901	0.20224382
6	0xbdad0144	-0.08447507
7	0xbdf363f8	-0.11884302
8	0xbd20912c	-0.039200947
9	0x3df38cb8	0.11892074
10	0x3da9e718	0.08296031
11	0xbd4764eb	-0.048680227
12	0x3ded3cf6	0.11583893
13	0xbd854612	-0.065075055
14	0xbbef63a9	-0.0073055816
15	0x3c0776aa	0.008268038
16	0xbdfafc2e	-0.12255131
17	0x3e0579b5	0.13034709
18	0xbc39455d	-0.011308041
19	0xbc561e93	-0.013068813
20	0xbce2a062	-0.027664367
21	0x3c99a756	0.01875655
22	0xbd12c6e9	-0.035834227
23	0x3c35dc5d	0.011099902
24	0x3ae0173e	0.001709677
25	0x3cb50146	0.022095334
26	0xbd3c04d0	-0.045903027
27	0x3c2217e1	0.0098933885
28	0x3e1e1452	0.15437439
29	0xbcd20e8d	-0.025641704
30	0x3d67cf50	0.056594193
31	0xbd205367	-0.03914204
32	0xbb4c67a9	-0.0031189716
33	0x3dfb6164	0.12274435
34	0x3be07476	0.0068498207
35	0x3ccbe0ed	0.024887526
36	0x3e9c83c4	0.3056928
37	0xbd06a71c	-0.03287421
38	0x3e150a74	0.14554769
39	0x3d9231d6	0.07138412
40	0x3dd55486	0.10416512
41	0x3d71d405	0.05904009
42	0xbd7f4de7	-0.062330153
43	0xbd3adde5	-0.04562177
44	0x3c7b78af	0.015348597
45	0xbd337547	-0.043813016
46	0x3dd61582	0.10453321
47	0xbd152303	-0.036410343
48	0x3dcf2dbf	0.10116147
49	0x3e42ec99	0.19035567
50	0x3e9f03aa	0.31057483
51	0xbc07dbed	-0.0082921805
52	0xbd699543	-0.057027113
53	0xbdd028b6	-0.10164015
54	0x3e16a4b3	0.14711265
55	0x3d2282bb	0.039675456
56	0xbc3382a5	-0.010956441
57	0x3dea1aff	0.1143093
58	0x3dab4186	0.08362107
59	0xbd1c2f55	-0.038131077
60	0x3dade39c	0.08490679
61	0xbc5e2029	-0.013557472
62	0x3e30f628	0.17281401
63	0xbd025934	-0.031823352
64	0xbd4d600d	-0.05014043
65	0xbd5ac303	-0.053408634
66	0xbd92aac3	-0.071614765
67	0xbde57789	-0.1120444
68	0x3d8acc6c	0.06777272
69	0x3e359099	0.17730941
70	0x3c885c35	0.01664553
71	0xbd57778b	-0.05260424
72	0x3e3a2aec	0.18180436
73	0xbdb9cca9	-0.09072239
74	0x3e23819d	0.15967412
75	0x3e7420d2	0.23840645
76	0xbd0b9ed8	-0.034087032
77	0x3ac06608	0.0014678845
78	0xbd52b994	-0.051446512
79	0x3d3fe2ef	0.04684728
80	0x3c365f44	0.0111311115
81	0x3e1a1a4e	0.15049097
82	0x3e2bd3d9	0.16780032
83	0x3d96ccd0	0.07363284
84	0xbd7ae291	-0.061251227
85	0xbd7fb412	-0.062427588
86	0x3e5ccb12	0.2156184
87	0x3e20d7db	0.15707342
88	0xbcead41f	-0.0286656
89	0xbd401308	-0.04689315
90	0x3d429174	0.047501996
91	0x3ddac7f8	0.10682672
92	0xbcd9689d	-0.026539141
93	0xbc7839ff	-0.015150546
94	0xbdb4c85d	-0.08827279
95	0x3e03eeaf	0.1288402
96	0x3e3a27a1	0.1817918
97	0x3d353dd4	0.044248417
98	0xbbb568dd	-0.0055361823
99	0xbc8fb8e1	-0.017544212
100	0x3db9172b	0.09037622
101	0x3e83cad7	0.25740692
102	0xbe2c4ec0	-0.16826916
103	0x3bef09cc	0.007294869
104	0xbd8a33a5	-0.06748132
105	0xbdcc8f61	-0.09988285
106	0xbda62e97	-0.08114355
107	0xbcccc8a8	-0.024998024
108	0xbd8474fb	-0.06467625
109	0xbc8a71f0	-0.016900033
110	0xbd383944	-0.044976488
111	0xbba26807	-0.0049562487
112	0xbd36e319	-0.04465017
113	0x3e29623d	0.16541381
114	0x3d8b3e11	0.067989476
115	0xbcf8c7b8	-0.03036867
116	0x3e726739	0.23672189
117	0xbc19e261	-0.009392352
118	0xbdb82baa	-0.08992703
119	0xbbf98ce6	-0.0076156734
120	0x3c09379c	0.008375075
121	0x3e36e166	0.1785942
122	0x3dd853ba	0.105628446
123	0xbd81cf03	-0.063383125
124	0x3d00a880	0.031410694
125	0xbe0bd02b	-0.13653629
126	0xbda189d3	-0.07887616
127	0xbd26cb15	-0.040721018

weight f4 [5, 128]
0	0xbeb91e7c	-0.3615607
1	0xbf00e538	-0.5034976
2	0x3e1a0fbf	0.15045069
3	0x3dc85599	0.097819515
4	0x3d4d8c76	0.050182782
5	0x3dea370c	0.114362806
6	0x3e043f3e	0.1291475
7	0xbe961b85	-0.2931787
8	0x3bfa592a	0.0076400237
9	0xbdbd8e63	-0.09255674
10	0x3db7a99b	0.089678966
11	0xbcfb23e5	-0.030656764
12	0x3da560a1	0.08075071
13	0x3b4b8d63	0.0031059615
14	0xbf056e29	-0.52121216
15	0xbf189f85	-0.5961841
16	0xbeb839b6	-0.3598153
17	0x3e35ca6a	0.17752996
18	0x3c806f2f	0.015678016
19	0xba1e3b65	-0.0006036072
20	0xbd617247	-0.055040624
21	0xbf3cc879	-0.73743397
22	0xbc5c26fa	-0.013437027
23	0x3dcc428c	0.0997363
24	0xbe0f04eb	-0.1396672
25	0xbfc8a9f0	-1.5676861
26	0xbef30102	-0.47461706
27	0xbf207744	-0.62681985
28	0xbd855aba	-0.06511445
29	0xba2a8963	-0.00065054576
30	0xbe9ccd4e	-0.30625385
31	0xbbbacd88	-0.0057007708
32	0xbec563ec	-0.38552797
33	0xbf1db62d	-0.61606103
34	0xbf1245c8	-0.5713773
35	0xbf25da5c	-0.64786315
36	0x3f5b7f55	0.8574117
37	0x3bb9f1f4	0.005674595
38	0xbf94d4e2	-1.1627467
39	0x3d920af1	0.07130993
40	0xbc722f09	-0.014781722
41	0xbf76f388	-0.9646535
42	0xbdaa07e4	-0.08302286
43	0xbcac892c	-0.021061502
44	0xbf41ab7d	-0.75652295
45	0x3ab41ba7	0.0013741151
46	0xbe29dc5b	-0.16587965
47	0x3c957e6b	0.018248757
48	0x3e4c098a	0.19925514
49	0x3d660f14	0.056166723
50	0x3ec3b0e3	0.3822089
51	0xbbfcf270	-0.0077193305
52	0x3cf13a04	0.02944661
53	0xbed38aa9	-0.41316727
54	0x3e197ab8	0.1498822
55	0xbf9332bc	-1.1499858
56	0xbf96be9f	-1.1776923
57	0xbf67abca	-0.90496504
58	0x3d744efa	0.05964563
59	0xbe108c2b	-0.1411597
60	0x3dd7dd27	0.10540228
61	0xba3e9e13	-0.00072714797
62	0x3db105b3	0.08643665
63	0xbe8451d5	-0.25843683
64	0xbea1c57d	-0.31595984
65	0xbf42fd4a	-0.7616774
66	0x3e0b9289	0.13630117
67	0xbf3b93d4	-0.7327244
68	0x3e014865	0.12625273
69	0x3e0269d0	0.12735677
70	0xbcab46c2	-0.020907763
71	0xbf01a0a0	-0.5063572
72	0x3e1c9c9d	0.15294118
73	0xbeb9498c	-0.36188924
74	0xbd84d383	-0.06485655
75	0x3e3a3ad2	0.181865
76	0xbd75005a	-0.05981479
77	0xbe6ab4bd	-0.22920509
78	0xbea1900c	-0.31555212
79	0x3dd6de90	0.10491669
80	0xbde38fad	-0.11111388
81	0xbb895e3c	-0.004192142
82	0x3e2b6f62	0.16741708
83	0x3e1a9050	0.15094113
84	0x3d9db2d2	0.07700123
85	0xbf3cee00	-0.7380066
86	0x3da92411	0.08258832
87	0x3da68672	0.08131112
88	0x3ca93dba	0.020659316
89	0x3cfbc1f2	0.030732129
90	0xbe5738f8	-0.21017826
91	0xbc01ef29	-0.007930555
92	0x3c333366	0.010937547
93	0xbaa8a9ae	-0.0012867951
94	0xbe8252d7	-0.25453827
95	0xbffaff87	-1.9609231
96	0x3d0f2565	0.03494777
97	0xbe876276	-0.26442307
98	0xbe797621	-0.24361469
99	0x3ca74c93	0.020422256
100	0xbf7614ff	-0.9612579
101	0x3dc4d02e	0.096100196
102	0x3db452ca	0.08804853
103	0xbf267333	-0.6501953
104	0xbf0e85f4	-0.55673146
105	0xbf3bfedc	-0.7343576
106	0xbf2ff249	-0.6872907
107	0x3d20167b	0.03908394
108	0xbe38de9f	-0.18053673
109	0xbc8b19ea	-0.01698013
110	0xbbac0344	-0.0052494127
111	0xb903fbd5	-0.00012586948
112	0x3b8ff249	0.0043928963
113	0xbe282972	-0.1642206
114	0xbef235bd	-0.47306624
115	0x3ed7f8db	0.4218205
116	0x3dfea284	0.12433341
117	0x3cc9b5fb	0.024622908
118	0x3b3d5c13	0.0028893992
119	0x3a3f7479	0.00073034276
120	0xbf910875	-1.1330706
121	0x3d762f87	0.06010392
122	0x3d2a03f6	0.041507684
123	0xbdd060ea	-0.10174735
124	0xbf00317d	-0.50075513
125	0xbdbabe9e	-0.091183886
126	0xbe35f2ff	-0.17768477
127	0x3ecc6a9a	0.3992508
128	0x3d9c9423	0.07645442
129	0xbe962630	-0.2932601
130	0xbf570ba2	-0.84002125
131	0xbf29438f	-0.6611871
132	0x3dfa64f7	0.12226289
133	0xbf6615db	-0.898771
134	0xbec89d7e	-0.39182657
135	0x3d838fa0	0.06423879
136	0xba8685ec	-0.00102633
137	0x3eabe9eb	0.33576903
138	0x3e3fe199	0.18738402
139	0x3c2fa634	0.010720778
140	0x3e125581	0.1429043
141	0xbc128e81	-0.008945108
142	0xbf4e4dc2	-0.805874
143	0x3e91c4dc	0.28470504
144	0xbd2cf123	-0.042222153
145	0xbf136d91	-0.5758906
146	0xbc50d3eb	-0.012745838
147	0xbb8a88e7	-0.004227746
148	0x3df29e2c	0.11846575
149	0x3e881231	0.2657638
150	0x3a94934b	0.0011335401
151	0xbedb018d	-0.4277462
152	0x3e11e0a9	0.14245857
153	0xbf88dfd5	-1.0693308
154	0x3e47906e	0.1948869
155	0xbe7ca0d8	-0.24670732
156	0x3ed00631	0.40629724
157	0xba022260	-0.0004964229
158	0xbea905f4	-0.33012354
159	0x3d248825	0.0401689
160	0xbddcab9b	-0.10774919
161	0xbf0c172e	-0.5472287
162	0x3e6c8f5d	0.23101564
163	0xbe988eb6	-0.2979638
164	0x3e74c920	0.23904848
165	0xbb9ba23b	-0.004749564
166	0xbf3fdc17	-0.74945205
167	0xbf194b1f	-0.5988025
168	0x3ec53a66	0.38521117
169	0x3e183b2b	0.14866321
170	0xbe889648	-0.26677155
171	0xbe846258	-0.2585628
172	0x3d91e140	0.07123041
173	0x3c69f2f5	0.014279117
174	0xbd803c8c	-0.062615484
175	0xbcfa052d	-0.030520046
176	0xbef1a100	-0.47193146
177	0x3e2ea3c5	0.1705466
178	0x3ed1ceec	0.4097818
179	0x3a42eefa	0.0007436123
180	0xbd9b5fa2	-0.075866
181	0x3da05cb8	0.07830185
182	0x3e4e0906	0.2012063
183	0xbc70932c	-0.014683526
184	0x3e60e193	0.2196105
185	0xbf13b68c	-0.5770042
186	0x3ce88e6e	0.028388228
187	0xbec7f44b	-0.39053568
188	0x3e4c76a7	0.19967137
189	0xba39b66d	-0.00070843735
190	0xbf1d1e32	-0.613742
191	0xbe8aba67	-0.2709534
192	0xbd86435a	-0.06555815
193	0x3e931a90	0.28731203
194	0xbef5295d	-0.4788312
195	0x3e2978fd	0.1655006
196	0xbf4132a3	-0.7546789
197	0x3e27d124	0.16388375
198	0x3decf28d	0.115697004
199	0xbdff4ad7	-0.124654464
200	0xbf3567a0	-0.70861244
201	0xbeb42f77	-0.35192463
202	0x3eb76ee7	0.358268
203	0xbefd604f	-0.4948754
204	0x3da22b5d	0.07918427
205	0x3e8c872c	0.27446878
206	0x3d5e63b8	0.054294318
207	0x3d29f2c5	0.04149129
208	0xbebb283e	-0.3655414
209	0x3d568269	0.052370463
210	0x3dc7836c	0.097418636
211	0xbf2660e0	-0.6499157
212	0xbd641018	-0.05567941
213	0xbf02b8f2	-0.51063454
214	0x3e3ec588	0.1863004
215	0x3e7742b8	0.24146545
216	0xba96e7ea	-0.0011513208
217	0x3c3705f9	0.011170858
218	0x3e0fd694	0.14046699
219	0x3e07b8a7	0.13254033
220	0x3d264ca4	0.040600434
221	0x3c9f212d	0.019425
222	0x3cb4dd3f	0.022078155
223	0xbe255157	-0.1614431
224	0x3e7afb78	0.2450999
225	0xbf831ece	-1.0243776
226	0x3e1bbd2d	0.15208884
227	0xb9f5766e	-0.00046818278
228	0xbf41b375	-0.75664455
229	0x3e87357e	0.26408
230	0xbf224897	-0.63392013
231	0x3eb9a24a	0.3625663
232	0xbf7b0aee	-0.9806355
233	0xbd01a39e	-0.031650178
234	0x3e635c9c	0.22203296
235	0xbc0483a5	-0.008088027
236	0x3d128897	0.035774793
237	0xbc2c4799	-0.010515117
238	0xbbef9043	-0.0073108985
239	0xb87b769d	-5.995353e-05
240	0x3c5e17cd	0.013555479
241	0xbf5859e4	-0.8451216
242	0xbf06c1de	-0.5263957
243	0xbc842db3	-0.016135072
244	0xbf35eeaf	-0.7106733
245	0xbc42e69d	-0.011895803
246	0xbed2b3fe	-0.41152948
247	0xb912ab34	-0.00013987423
248	0x3e9f6666	0.3113281
249	0xbf4779ee	-0.77920425
250	0x3e90a5d6	0.28251523
251	0xbefe6172	-0.4968372
252	0xbed85692	-0.42253548
253	0x3e15cf41	0.14629842
254	0x3e0a1a15	0.13486512
255	0xbea33d1c	-0.3188256

bias f4 [5]
0	0x3db0c657	0.0863158
1	0x3d24661e	0.04013645
2	0x3d9a6c6c	0.07540211
3	0xbd78d6a8	-0.060751587
4	0xbdac418d	-0.0841094
