NN_Model_weight/1.pth (torch, 180967 bytes, 6 tensors)

weight f4 [256, 42]
0.03470843 0.13141388 0.15737166 -0.10792389 -0.08760771 -0.026017183 0.011282104 -0.1222716
-0.26802695 0.05673195 0.24608138 -0.1526991 -0.13550787 -0.09027894 -0.102409326 -0.3036989
-0.17253426 -0.2290799 0.1367207 -0.0027927102 -0.07144255 -0.11525631 0.079849556 -0.22559735
0.17757359 0.043247733 -0.010176863 -0.009170488 -0.1890074 0.25813004 0.044141773 0.18006825
0.036403786 0.4777741 0.23467052 0.23246159 -0.022817977 0.31339777 -0.1633454 -0.002679733
0.05910109 0.19337045 -0.24372873 -0.08422597 -0.23273112 0.010175155 -0.004802428 -0.17792231
-0.14605935 -0.1645728 0.13621676 -0.31980333 -0.1713114 -0.12929331 -0.070371404 -0.2536543
0.09315657 -0.19831242 0.12373274 0.08044372 -0.16689001 -0.14868033 0.058447093 0.06610585
0.20496121 0.12897533 -0.028876532 0.25725535 -0.32549685 -0.07777725 0.049173232 -0.009525904
0.13769513 0.12979054 0.068454556 0.39144373 -0.21694098 -0.06060162 -0.04814061 0.079083115
0.10826175 0.23027629 -0.05680842 0.1859813 -0.31709236 0.06592822 -0.109112926 0.050894253
0.15190144 -0.21163557 0.18474184 -0.05319694 0.022037081 -0.33141094 0.17003946 0.097529024
0.19392665 0.058091298 0.28273803 0.29046762 0.22120602 0.23952986 -0.124440715 -0.09915474
-0.021962002 0.01857638 -0.025846664 0.22202742 -0.056875333 0.27179387 -0.2335188 -0.22810018
0.05912234 -0.24335529 0.0707377 0.13235974 -0.14315577 0.14970694 -0.10572024 -0.36885878
0.016164439 -0.18813388 -0.13368881 -0.022431154 0.022819445 0.15025724 -0.016184662 -0.016651567
-0.015777795 -0.017685842 -0.015524302 -0.017234625 -0.0155812865 -0.017061906 -0.015815938 -0.01667269
-0.015747812 -0.016321149 -0.016069826 -0.016206285 -0.016273638 -0.015495745 -0.016366523 -0.014671229
-0.016033739 -0.016387226 -0.01636409 -0.01604296 -0.01639368 -0.015096025 -0.016408533 -0.013934678
-0.01629544 -0.016321613 -0.016688852 -0.015926726 -0.016849888 -0.014922982 -0.016874025 -0.013953749
-0.016491689 -0.0165367 -0.016706424 -0.016364878 -0.016806055 -0.01573193 -0.016923582 -0.015369125
0.31003553 0.2572465 -0.026072308 -0.039545998 -0.11543598 -0.03888515 -0.13618553 0.098178804
-0.30258667 -0.16991931 -0.07312847 -0.17777446 -0.25117704 -0.08229031 -0.2660449 -0.26509047
-0.09184505 -0.115387216 0.00020824876 -0.16271609 -0.08424695 0.0044891248 -0.016727762 -0.038498443
0.054468658 0.21706086 0.23684144 -0.13410032 -0.021573488 0.08386545 -0.04032295 0.2640425
0.08625646 0.42866614 0.28833348 0.071959965 0.20244548 -0.07007118 0.18568856 0.0256609
0.08758374 0.18925491 -0.058041696 -0.15365468 0.03723918 -0.1467282 0.080552705 0.050854288
0.09526338 0.20653033 0.13401322 0.20951773 0.07747887 0.12876937 -0.00058054004 0.21257144
-0.06141355 0.007804291 0.10694429 -0.4097618 -0.16366975 0.21699502 0.09403652 0.35653633
0.07672534 -0.15282407 -0.10254672 -0.3477976 0.049825408 0.0073604695 -0.07620808 0.15083495
-0.07546549 -0.21598844 -0.08074337 -0.43412974 -0.06342565 0.2928994 0.014128043 0.28843948
-0.09579956 0.055463836 -0.101594776 -0.3030862 -0.0024895687 -0.0021224923 -0.0026293725 -0.0018962496
00000000: 6d2a 0e3d 5c91 063e 0926 213e 3307 ddbd
00000010: ac6b b3bd fd21 d5bc 93d8 383c 8869 fabd
00000020: d43a 89be c35f 683d c2fc 7b3e 275d 1cbe
00000030: 93c2 0abe 2ae4 b8bd fbbb d1bd 6c7e 9bbe
00000040: d2ac 30be ec93 6abe 8300 0c3e e705 37bb
00000050: 7950 92bd 800b ecbd 2a88 a33d fe02 67be
00000060: dad5 353e 8924 313d dbbc 26bc d13f 16bc
00000070: 288b 41be 9f29 843e 01ce 343d d063 383e
00000080: 231c 153d cf9e f43e 784d 703e 690a 6e3e
00000090: c4ec babc ac75 a03e 0444 27be 769e 2fbb
000000a0: fc13 723d e702 463e 0694 79be aa7e acbd
000000b0: 1151 6ebe b1b5 263c b05d 9dbb 4431 36be
000000c0: 9590 15be c685 28be 687c 0b3e 43bd a3be
000000d0: 416c 2fbe 7765 04be e21e 90bd fade 81be
000000e0: dfc8 be3d 6912 4bbe 9767 fd3d adbf a43d
000000f0: 37e5 2abe a83f 18be 3866 6f3d 8162 873d
00000100: 5ae1 513e 1c12 043e 7a8e ecbc f9b6 833e
00000110: 86a7 a6be ae49 9fbd df69 493d 8a12 1cbc
00000120: f4ff 0c3e d0e7 043e e731 8c3d 506b c83e
00000130: c725 5ebe 6739 78bd 172f 45bd 54f6 a13d
00000140: 56b8 dd3d 8ccd 6b3e f2af 68bd e271 3e3e
00000150: ee59 a2be 6005 873d 9976 dfbd 7e76 503d
00000160: 0d8c 1b3e ffb6 58be f72c 3d3e 09e5 59bd
00000170: 1c87 b43c b2ae a9be d31e 2e3e 4cbd c73d
00000180: b594 463e 24f1 6d3d 0ac3 903e 2cb8 943e
00000190: d583 623e 5147 753e c6da febd a411 cbbd
000001a0: a8e9 b3bc 7e2d 983c 62bc d3bc 285b 633e
000001b0: 1cf6 68bd 9128 8b3e 8d1f 6fbe 1893 69be
000001c0: 442a 723d 2132 79be edde 903d 5089 073e
000001d0: 6d97 12be c74c 193e da83 d8bd 0fdb bcbe
000001e0: 496b 843c 2ba6 40be b8e5 08be 8ac1 b7bc
000001f0: d8ef ba3c 09dd 193e b295 84bc de68 88bc
00000200: 6f40 81bc e6e1 90bc a459 7ebc a12f 8dbc
00000210: a748 7fbc 69c5 8bbc 6d90 81bc 2a95 88bc
00000220: 8e01 81bc eeb3 85bc dea4 83bc 0bc3 84bc
00000230: 4b50 85bc dee1 7dbc 1613 86bc 985f 70bc
00000240: 3059 83bc 813e 86bc fc0d 86bc 876c 83bc
00000250: 0a4c 86bc 5155 77bc 306b 86bc 474e 64bc
00000260: 047e 85bc e7b4 85bc 0fb7 88bc c478 82bc
00000270: c708 8abc 867f 74bc 653b 8abc 449e 64bc
00000280: 9419 87bc f977 87bc e9db 88bc a30f 86bc
00000290: daac 89bc 40e0 80bc 53a3 8abc c8ce 7bbc
000002a0: fabc 9e3e d0b5 833e 9895 d5bc fcfa 21bd
000002b0: b369 ecbd 0946 1fbd 3874 0bbe f811 c93d
000002c0: a4ec 9abe 54ff 2dbe 61c4 95bd 820a 36be
000002d0: 479a 80be d287 a8bd 0a37 88be f0b9 87be
000002e0: 4219 bcbd 2250 ecbd 5a5d 5a39 0c9f 26be
000002f0: aa89 acbd 8219 933b a908 89bc 8bb0 1dbd
00000300: 871a 5f3d 3445 5e3e 9086 723e 9851 09be
00000310: e2ba b0bc a6c1 ab3d ad29 25bd 9430 873e
00000320: 3aa7 b03d 217a db3e 72a0 933e bf5f 933d
00000330: de4d 4f3e 7b81 8fbd 2425 3e3e cf36 d23c
00000340: 1b5f b33d 0acc 413e 21bd 6dbd a757 1dbe
00000350: 1c88 183d eb3f 16be d1f8 a43d 964c 503d
00000360: 7219 c33d b07c 533e c33a 093e d18b 563e
00000370: 3ead 9e3d 1edc 033e 622f 18ba 54ac 593e
00000380: c68c 7bbd 23bb ff3b 9c05 db3d 4ccc d1be
00000390: 0b99 27be f133 5e3e 3896 c03d ee8b b63e
000003a0: 2d22 9d3d ea7d 1cbe 0404 d2bd 8712 b2be
000003b0: ba15 4c3d 1830 f13b fb12 9cbd 7a74 1a3e
000003c0: a78d 9abd 132c 5dbe c85c a5bd 4146 debe
000003d0: 4fe5 81bd e9f6 953e 4f79 673c 57ae 933e
000003e0: 8f32 c4bd 0c2e 633d ec10 d0bd 1d2e 9bbe
000003f0: 0828 23bb 8319 0bbb 8d51 2cbb 948b f8ba

bias f4 [256]
-0.22884794 0.12955289 0.13113132 -0.01669998 -0.14247312 0.21799994 -0.004347092 0.05665507
-0.15063311 -0.030075433 0.08287177 0.3790014 0.04300051 -0.01020864 0.29055077 0.068922535
-0.16189317 -0.043730207 -0.0081776995 0.092561044 0.17924498 -0.15667206 -0.2145715 0.1259028
-0.34641775 0.05575615 0.3014965 -0.023388453 -0.009658838 -0.22286533 0.051440075 -0.012685756
0.34034136 -0.022194913 0.29868805 0.17593963 0.2823244 -0.06619192 -0.02209835 0.19878192
-0.010871996 -0.3131412 0.14953054 -0.16119081 0.2722906 -0.017692588 -0.27591693 0.1538337
0.007794069 0.050172593 0.022116192 0.26535702 -0.017965833 0.24742565 -0.3229318 -0.0212259
0.2001572 -0.020344105 0.012835882 0.19671847 -0.029472595 0.06817476 0.28305396 0.10577891
0.05951199 0.46718556 0.15661947 0.026835995 0.026330596 -0.08383674 0.14293191 -0.3689448
-0.014252729 0.39634395 0.26749256 0.39283285 0.24134417 0.101122886 -0.013066388 0.007980282
-0.04078406 -0.019518057 0.15099275 0.19122505 -0.010694113 -0.0754296 0.49205193 0.15892445
-0.17299974 0.08456239 0.07602494 0.29672888 0.20982634 -0.18957923 -0.011370982 0.32895476
-0.013803882 -0.31785813 0.11933956 0.031344328 -0.296675 0.2411815 -0.0017791059 -0.43873143
-0.008046661 -0.025879286 -0.20622002 0.012160092 -0.21264173 -0.017255822 -0.03781355 0.004219737
-0.10428372 -0.0060485145 -0.19714247 0.06877464 0.26490575 0.46103695 -0.02933657 0.011489516
0.17641129 0.082547404 -0.190816 0.072094835 0.10264834 -0.05518357 -0.022567917 -0.001175351
0.14687374 -0.48112214 -0.027556755 -0.029118693 -0.14122525 0.13985337 0.1076779 -0.04623834
-0.047137775 -0.00094319915 0.113721505 -0.008476549 -0.09303825 -0.029812172 -0.23703562 0.25760114
-0.2671711 0.28731903 -0.010755708 0.120204285 -0.047115568 0.006074562 0.18344331 0.024531487
-0.13733077 -0.07365653 -0.31271273 0.13570032 -0.005496814 0.27830544 -0.0030767594 -0.011711253
-0.015392675 0.04846244 -0.03287724 -0.0029878689 -0.11307118 0.2844303 -0.00635642 0.15912272
0.07540744 0.38953716 -0.12371892 -0.011995606 -0.1634157 -0.06657245 0.05097877 0.040398873
0.009232652 0.31449735 0.085313804 -0.021900713 0.041837152 -0.12618752 -0.20289767 -0.057868212
0.013230949 0.090664595 -0.019112175 -0.1058415 0.11831961 -0.14381532 -0.07234556 0.009586286
-0.0029327516 -0.04381436 0.34255713 -0.038275808 -0.022379922 0.086562485 0.28532264 -0.006818053
-0.016960144 -0.058079243 -0.40735653 0.14107843 0.20761149 -0.3054048 0.21786548 0.052582435
0.027870338 0.039055407 -0.09807378 -0.013578753 0.021401001 0.33222407 -0.08717544 0.23510267
-0.0858568 -0.4795116 0.26232794 0.22127208 -0.008199006 0.07152301 -0.28178388 -0.03515215
-0.12916595 0.011409194 -0.16840114 -0.0097376825 0.004472981 -0.22213003 -0.07795824 -0.03740429
0.16765903 0.13331422 -0.36034992 0.41995394 -0.0006727298 -0.004616741 -0.036246307 -0.055988565
-0.11323719 -0.010781618 -0.024704685 -0.024517028 -0.020113744 -0.102356166 -0.001315824 -0.0065153786
0.13205594 0.2644407 -0.36691514 0.02338156 0.00058779365 0.09092683 0.61050826 -0.02053005
00000000: 1d57 6abe 83a9 043e 4a47 063e 65ce 88bc
00000010: 79e4 11be 603b 5f3e 0d72 8ebb 260f 683d
00000020: 913f 1abe c160 f6bc adb8 a93d 790c c23e
00000030: 4e21 303d 2442 27bc 12c3 943e 4227 8d3d
00000040: 53c7 25be 721e 33bd c2fb 05bc a590 bd3d
00000050: ff8b 373e a46e 20be a2b8 5bbe aaec 003e
00000060: ab5d b1be 9060 643d c05d 9a3e 2499 bfbc
00000070: 1a40 1ebc cf36 64be d4b2 523d ebd7 4fbc
00000080: 3941 ae3e 1bd2 b5bc a4ed 983e 8529 343e
00000090: d38c 903e a18f 87bd 9907 b5bc 7d8d 4b3e
000000a0: 7520 32bc 0b54 a0be 891e 193e 340f 25be
000000b0: ac69 8b3e 0cf0 90bc fc44 8dbe 9586 1d3e
000000c0: 6465 ff3b c781 4d3d 042d b53c e0dc 873e
000000d0: 152d 93bc 265d 7d3e 5157 a5be f0e1 adbc
000000e0: 02f6 4c3e aea8 a6bc 974d 523c 9170 493e
000000f0: 8370 f1bc 359f 8b3d 73ec 903e 9da2 d83d
00000100: d8c2 733d f232 ef3e db60 203e 29d7 db3c
00000110: 43b3 d73c 99b2 abbd be5c 123e 55e6 bcbe
00000120: 4784 69bc 98ed ca3e c9f4 883e 6321 c93e
00000130: ed22 773e 8419 cf3d 6714 56bc bbbf 023c
00000140: 300d 27bd 55e4 9fbc d89d 1a3e 80d0 433e
00000150: 5c36 2fbc d67a 9abd 3bee fb3e 17bd 223e
00000160: d826 31be 0c2f ad3d f7b2 9b3d d9ec 973e
00000170: b7dc 563e 0f21 42be 5b4d 3abc c26c a83e
00000180: ad29 62bc 4dbe a2be 4d68 f43d e962 003d
00000190: c9e5 97be 48f8 763e e330 e9ba 68a1 e0be
000001a0: 24d6 03bc cc00 d4bc 572b 53be 1f3b 473c
000001b0: c1be 59be 155c 8dbc 62e2 1abd b845 8a3b
000001c0: b492 d5bd 9e32 c6bb b7df 49be b8d9 8c3d
000001d0: baa1 873e 090d ec3e 3f53 f0bc 863e 3c3c
000001e0: 29a5 343e 9d0e a93d 4565 43be 75a6 933d
000001f0: 4b39 d23d 2b08 62bd 5ae0 b8bc 3c0e 9aba
00000200: 1266 163e a455 f6be b4be e1bc 538a eebc
00000210: 5a9d 10be b935 0f3e 3b86 dc3d 6a64 3dbd
00000220: 8a13 41bd 0641 77ba d2e6 e83d 39e1 0abc
00000230: d78a bebd a838 f4bc 77b9 72be 4ce4 833e
00000240: a7ca 88be 7b1b 933e b638 30bc aa2d f63d
00000250: 41fc 40bd 1f0d c73b 90d8 3b3e 42f6 c83c
00000260: 70a0 0cbe 3cd9 96bd e21b a0be 06f5 0a3e
00000270: 9e1e b4bb 0d7e 8e3e 75a3 49bb 8ee0 3fbc
00000280: 8f31 7cbc 8d80 463d 49aa 06bd 1fd0 43bb
00000290: dd91 e7bd d9a0 913e 8449 d0bb 11f1 223e
000002a0: 376f 9a3d 6a71 c73e 5860 fdbd 3889 44bc
000002b0: 7256 27be 2357 88bd 1dcf 503d 4a79 253d
000002c0: 8d44 173c cc05 a13e 01b9 ae3d 2069 b3bc
000002d0: 6f5d 2b3d 4d37 01be 68c4 4fbe 3807 6dbd
000002e0: 9fc6 583c 5cae b93d 2391 9cbc 6ec3 d8bd
000002f0: 8d51 f23d 5344 13be e929 94bd cc0f 1d3c
00000300: 6833 40bb b076 33bd a663 af3e 18c7 1cbd
00000310: 1956 b7bc ac47 b13d cf15 923e f969 dfbb
00000320: 00f0 8abc 80e4 6dbd 0991 d0be dd76 103e
00000330: 1b98 543e 055e 9cbe 2118 5f3e ae60 573d
00000340: 5650 e43c 90f8 1f3d e8da c8bd 6b79 5ebc
00000350: 2751 af3c 4619 aa3e 0989 b2bd c1be 703e
00000360: b1d5 afbd 8b82 f5be d94f 863e 2695 623e
00000370: 2055 06bc a87a 923d fa45 90be b3fb 0fbd
00000380: 1444 04be a1ed 3a3c 5971 2cbe cd8a 1fbc
00000390: 1692 923b 0e76 63be 92a8 9fbd 3e35 19bd
000003a0: cfae 2b3e 8683 083e c97f b8be 3404 d73e
000003b0: 225a 30ba 0848 97bb 0277 14bd 4454 65bd
000003c0: e6e8 e7bd 62a5 30bc 7b61 cabc efd7 c8bc
000003d0: 94c5 a4bc 1ca0 d1bd ba77 acba f57e d5bb
000003e0: ac39 073e c564 873e 4ddc bbbe af8a bf3c
000003f0: 2a16 1a3a d937 ba3d 454a 1c3f a32e a8bc

weight f4 [128, 256]
0.071181625 -0.0327959 -0.097783804 -0.009517338 -0.10481954 0.2003562 -0.0026591234 0.0091906665
-0.016046789 0.004556507 0.22999886 -0.20921656 0.049813062 -0.0015056311 0.027050575 0.110289365
-0.0055836444 0.012612677 0.023050582 -0.004405964 -0.08350279 -0.052695412 0.120350786 -0.1404395
-0.17483388 0.06736228 -0.07268559 -0.006242316 0.009035293 0.13241245 -0.30701575 0.0026245846
0.28288665 0.004098114 -0.22003716 -0.2835833 -0.05276109 0.26469153 -0.0017484461 0.02766241
0.025115037 0.11094671 -0.05887408 -0.051142953 0.041348297 -0.0032397825 -0.013437372 -0.10142942
0.01760432 0.3094375 -0.13096061 -0.06754739 -0.006980161 0.24811028 -0.041594688 -0.03223176
0.19923459 -0.0003395541 0.16875513 0.009359113 -0.010655847 0.017069992 -0.073471054 0.1697613
-0.004436379 -0.06803308 -0.20523535 0.008246292 -0.113103636 0.072974585 0.16430995 0.15972403
0.011291125 0.068084635 -4.7310998e-05 0.34021848 0.21789272 -0.04368368 -0.0067406734 0.0022887583
-0.04539412 -0.0014762483 0.1585533 -0.011240783 -0.0025260234 -0.17586717 -0.023543535 0.53391874
-0.0046676197 -0.1266642 -0.004468824 0.18109399 0.08118895 0.211632 0.0022478162 0.05540956
0.05245754 -0.055237167 -0.0044569243 -0.14941527 0.23697254 -0.014705444 -0.0005466591 0.13550013
-0.022347022 -0.099868536 -0.13056175 -0.0037151992 -0.11462999 0.03537496 -0.00033272136 0.0026671982
0.09178507 -0.0005744069 0.058933448 -0.013664234 -0.25741893 0.13442576 0.022099765 0.30527806
-0.07735975 -0.41665703 -0.07651578 -0.05541684 0.16800813 -0.1051729 -0.010258416 -0.00048642597
0.11863649 0.09812806 0.00543785 0.014771002 -0.11415836 0.0032304595 0.016396912 -0.016974892
-0.021043086 0.24330677 -0.29852837 0.034798898 -0.005992729 -0.011641585 -0.039369054 0.33564276
-0.032010276 0.31800187 -0.019624153 0.016638706 -0.17354834 0.008874267 -0.1266909 -0.11005934
-0.00528315 0.2570348 0.11886994 0.038502574 0.15991576 0.08356124 -0.0020225768 -0.0060168346
-0.006218233 0.0044387253 -0.014183822 -0.0018639255 0.023492306 0.029056424 0.16273127 -0.4901531
0.6227974 -0.02602612 0.0008532221 0.2208754 -0.097428225 -0.0028812992 -0.0015338821 0.098168604
-0.7977441 0.2743243 -0.001904717 -0.030377025 0.11234227 0.08996993 -0.16732201 -0.026500283
-0.33838752 0.031993773 0.074955925 -0.0036571403 -0.01863989 -0.0087420335 0.16928148 0.009005376
7.117247e-05 -0.22648527 0.024048233 0.0024883582 -0.015729258 -0.0043574884 -0.09796452 -0.032509267
-0.045778673 0.00030393287 -0.18512973 -0.5784307 -0.1597028 -0.0625043 0.1619106 -0.036685903
-0.020406343 0.17163028 0.09756201 -0.0034013921 0.21907979 0.02926107 -0.20525002 0.08660399
-0.21822985 -0.062932216 -0.4993831 0.15383601 0.010114632 -0.00554999 0.10624063 -0.019660154
0.15388042 0.1256924 -0.1412156 0.0045242175 0.1297793 0.040320836 0.1880665 -0.0049022236
-0.25792846 0.120478675 0.15893851 0.34345326 0.16958703 0.053439267 0.13328642 -0.00019277271
0.057212632 -0.21096513 -0.0104355225 -0.0076509723 0.052008346 0.0009368198 -0.0065919436 -0.0034932422
-0.07806485 -0.12005551 -0.007976956 0.15351501 0.13333094 -0.056769393 -0.10912824 0.00568257
00000000: acc7 913d fe54 06bd e042 c8bd 9cee 1bbc
00000010: a1ab d6bd 2d2a 4d3e b044 2ebb 7394 163c
00000020: 8e74 83bc c04e 953b d284 6b3e de3c 56be
00000030: c808 4c3d 9958 c5ba 2b99 dd3c 64df e13d
00000040: 01f7 b6bb 67a5 4e3c 93d4 bc3c e85f 90bb
00000050: 8303 abbd 25d7 57bd 797a f63d 5fcf 0fbe
00000060: a707 33be 3cf5 893d 2fdc 94bd 588c ccbb
00000070: c408 143c 2197 073e 2b31 9dbe 3901 2c3b
00000080: 85d6 903e 7949 863b 6c51 61be d531 91be
00000090: 031c 58bd a685 873e 1e2c e5ba 479c e23c
000000a0: 0dbe cd3c 0738 e33d f325 71bd 467b 51bd
000000b0: d55c 293d 8852 54bb 6c28 5cbc 3aba cfbd
000000c0: ef36 903c 986e 9e3e 8a1a 06be 4956 8abd
000000d0: d6b9 e4bb 9f10 7e3e 315f 2abd 7305 04bd
000000e0: 2704 4c3e 2e06 b2b9 25ce 2c3e f756 193c
000000f0: dd95 2ebc 5ed6 8b3c fe77 96bd e8d5 2d3e
00000100: 0b5f 91bb ed54 8bbd 3729 52be 751b 073c
00000110: e1a2 e7bd b373 953d de40 283e b28e 233e
00000120: 69fe 383c f56f 8b3d cc6f 46b8 1e31 ae3e
00000130: 451f 5f3e a9ed 32bd dee0 dcbb fefe 153b
00000140: 2fef 39bd ac7e c1ba cc5b 223e 432b 38bc
00000150: a48b 25bb 8616 34be 5fde c0bc e6ae 083f
00000160: d5f2 98bb 43b4 01be 366f 92bb b470 393e
00000170: 6446 a63d 0fb6 583e 1950 133b 23f5 623d
00000180: b8dd 563d 5e40 62bd 640b 92bb 5100 19be
00000190: eea8 723e 1aef 70bc ac4d 0fba 8cc0 0a3e
000001a0: 1a11 b7bc e087 ccbd fbb1 05be b37a 73bb
000001b0: 21c3 eabd 56e5 103d 1b71 aeb9 29cc 2e3b
000001c0: d0f9 bb3d cb93 16ba 3364 713d f4df 5fbc
000001d0: 6acc 83be e8a6 093e 910a b53c 684d 9c3e
000001e0: ca6e 9ebd 1254 d5be 4eb4 9cbd c5fc 62bd
000001f0: 530a 2c3e e464 d7bd ea12 28bc fd06 ffb9
00000200: b0f7 f23d 5df7 c83d fe2f b23b 1302 723c
00000210: dccb e9bd 1eb6 533b d152 863c ee0e 8bbc
00000220: 8d62 acbc 6925 793e b6d8 98be 4a89 0e3d
00000230: a85e c4bb 59bc 3ebc 7241 21bd 5ed9 ab3e
00000240: 351d 03bd 24d1 a23e d5c2 a0bc e54d 883c
00000250: a8b6 31be 6065 113c 42bb 01be cb66 e1bd
00000260: 461e adbb 119a 833e 1572 f33d e0b4 1d3d
00000270: f5c0 233e 2822 ab3d 358d 04bb de28 c5bb
00000280: 52c2 cbbb ba72 913b 4363 68bc f64e f4ba
00000290: f072 c03c bd07 ee3c 07a3 263e 59f5 fabe
000002a0: a76f 1f3f bb34 d5bc c4aa 5f3a 292d 623e
000002b0: 7388 c7bd 2ed4 3cbb 8b0c c9ba 9f0c c93d
000002c0: f538 4cbf 3c74 8c3e b2a7 f9ba 3dd9 f8bc
000002d0: b413 e63d 2842 b83d 7656 2bbe 1f17 d9bc
000002e0: 2141 adbe e70b 033d 7e82 993d a2ac 6fbb
000002f0: afb2 98bc bf3a 0fbc 2058 2d3e 498b 133c
00000300: 6e42 9538 c1eb 67be cd00 c53c b913 233b
00000310: a5da 80bc 43c9 8ebb 9fa1 c8bd 7028 05bd
00000320: 6b82 3bbd 2e59 9f39 a692 3dbe 0914 14bf
00000330: 2189 23be 4102 80bd e4cb 253e f543 16bd
00000340: 342b a7bc d9bf 2f3e 97ce c73d e4e9 5ebb
00000350: 7456 603e e9b4 ef3c 102d 52be 6f5d b13d
00000360: a577 5fbe 9be2 80bd 24af ffbe 3087 1d3e
00000370: d7b7 253c b1dc b5bb b094 d93d 550e a1bc
00000380: d492 1d3e 82b5 003e d29a 10be e33f 943b
00000390: dde4 043e 7627 253d 8194 403e d5a2 a0bb
000003a0: 330f 84be 86bd f63d c7c0 223e 1bd9 af3e
000003b0: 39a8 2d3e 22e3 5a3d 3c7c 083e 0823 4ab9
000003c0: cb57 6a3d 3e07 58be c1f9 2abc 02b5 fabb
000003d0: b406 553d ea94 753a 3b01 d8bb e1ee 64bb
000003e0: 77e0 9fbd aadf f5bd c7b1 02bc 0a33 1d3e
000003f0: e887 083e 0687 68bd a07e dfbd da34 ba3b

bias f4 [128]
-0.05455032 0.21016079 0.0009950935 0.20602837 0.083260424 -0.0057769213 0.04115926 0.096477225
-0.036536172 -0.03396495 0.03396116 0.17724942 -0.07766081 -0.09800781 -0.011257456 0.027259855
0.076762386 0.014215493 -0.0039476682 0.085976206 -0.02849684 0.21669267 -0.022017954 0.10177458
-0.02520543 0.077432424 -0.08770066 -0.005529248 -0.052330326 0.19232087 0.09437768 0.19094078
-0.0005396262 0.05488888 0.038414694 0.13009033 -0.016143138 0.132396 0.09490602 0.1688363
0.05994665 -0.009357916 -0.049704965 -0.02324617 -0.08346843 0.14285237 0.11452361 0.03297453
0.104110636 -0.09942289 -0.055864565 0.2541948 0.13259262 -0.03296311 0.15946348 0.17434546
-0.028827425 0.031611964 0.04255241 0.011027868 0.06810515 0.1354671 -0.03250323 -0.03649021
0.09177476 -0.007444376 -0.05463976 -0.061510812 -0.007477358 -0.03818808 -0.0020266608 -0.00393337
-0.05295543 -0.012716117 0.079202324 0.097060375 -0.019611116 -6.7859264e-07 0.15534276 0.004077571
0.07708165 -0.0081766555 0.1749362 0.021680292 -0.07300853 0.27129546 0.11547021 0.24493128
-0.096210495 0.08200971 -0.0071346993 -0.007672587 -0.063556336 0.030863704 0.017177291 -0.076539986
-0.044025715 0.0516158 -0.022847326 -0.007691276 0.14909671 0.039836384 0.006951962 0.05945585
-0.017553572 0.012488939 0.09338419 -0.014985204 0.0035403562 -0.10688599 -0.030972969 -0.10839544
0.024784517 0.08107042 -0.03146003 0.054341897 -0.025384694 0.1002208 0.28650856 0.07110814
-0.001362048 0.18941097 0.063624606 0.07464616 -0.093060255 0.070124105 -0.026627012 -0.02229574
00000000: 2870 5fbd 6434 573e cc6d 823a 1af9 523e
00000010: 7184 aa3d 544c bdbb 9d96 283d da95 c53d
00000020: f4a6 15bd d51e 0bbd db1a 0b3d df80 353e
00000030: a10c 9fbd 52b8 c8bd 3171 38bc 0f50 df3c
00000040: 9935 9d3d 19e8 683c 715b 81bb 4b14 b03d
00000050: 3472 e9bc afe4 5d3e ff5e b4bc 316f d03d
00000060: 9e7b cebc e494 9e3d 679c b3bd b22e b5bb
00000070: 5358 56bd c3ef 443e 1649 c13d fb85 433e
00000080: b475 0dba 2ad3 603d ba58 1d3d 6636 053e
00000090: 9d3e 84bc d192 073e 165e c23d 6ce3 2c3e
000000a0: 9e8a 753d f251 19bc 6f97 4bbd c06e bebc
000000b0: 7ff1 aabd e447 123e 5b8b ea3d 4d10 073d
000000c0: f537 d53d 3a9e cbbd 3ed2 64bd d225 823e
000000d0: 5cc6 073e 5304 07bd 654a 233e 9e87 323e
000000e0: 7e27 ecbc 8c7b 013d 704b 2e3d 3bae 343c
000000f0: b67a 8b3d e3b7 0a3e 1b22 05bd c276 15bd
00000100: 68f4 bb3d f4ef f3bb f1cd 5fbd c3f2 7bbd
00000110: a004 f5bb 1b6b 1cbd bad1 04bb 80e3 80bb
00000120: cbe7 58bd 4357 50bc d434 a23d 97c7 c63d
00000130: 7ea7 a0bc 8828 36b5 2c12 1f3e 259d 853b
00000140: fcdc 9d3d 61f7 05bc 7a22 333e de9a b13c
00000150: 7f85 95bd 3de7 8a3e a57b ec3d 44cf 7a3e
00000160: 020a c5bd b5f4 a73d 32ca e9bb 536a fbbb
00000170: d329 82bd e1d5 fc3c 64b7 8c3c ffc0 9cbd
00000180: 4f54 34bd 176b 533d 512a bbbc 1907 fcbb
00000190: cfac 183e 7a2b 233d 49cd e33b fa87 733d
000001a0: 82cc 8fbc 689e 4c3c 3640 bf3d 8084 75bc
000001b0: 5205 683b 0be7 dabd 06bb fdbc 6efe ddbd
000001c0: e608 cb3c 4008 a63d 3bdc 00bd 9c95 5e3d
000001d0: 90f3 cfbc 9040 cd3d 40b1 923e 25a1 913d
000001e0: bf86 b2ba f3f4 413e 9e4d 823d 16e0 983d
000001f0: 6096 bebd 3a9d 8f3d e420 dabc 8ea5 b6bc

weight f4 [5, 128]
0.122610435 0.012125527 -0.71515006 -0.036651667 0.12961593 0.0004184377 -0.09069614 -0.86992264
0.017672667 0.04882172 -0.0063249297 0.0670529 0.010687482 -0.14923652 0.00344682 -0.5922406
0.17483339 0.13068503 -0.29133672 -0.76686895 0.035691798 -0.061090417 0.0050636334 0.18435863
0.013647259 0.07856606 -0.021588637 0.0012515148 -0.56674856 0.119252965 0.051060416 0.036634825
0.00010855046 0.15326016 -0.7284124 0.10518184 -0.01230353 0.15094766 0.0130900815 0.13905515
0.16163181 0.010226374 -0.5627063 -0.042375766 -0.70047194 0.12612608 0.06588335 -0.6082692
-0.57038194 -0.25800124 0.16437225 0.059431657 -1.0274317 0.027498253 0.046403043 -0.5395113
-0.25603977 -1.1569103 -0.22404617 -0.041907754 0.34503022 -0.17845319 0.015383163 0.026920168
-0.030184736 -0.0005778818 -0.4608765 -0.21590436 0.00039092652 -0.33688357 -0.5337418 -0.00023184692
-0.67200214 0.032548398 0.12726736 0.15216284 -0.70783937 8.109581e-09 0.16064018 -1.0798606
-0.32843333 0.009856477 0.12640586 0.017391786 -0.5506576 0.8548841 0.10354859 -1.1567932
-0.61596626 0.070277005 0.17009439 0.00091679627 -0.71288806 0.12613943 -0.7045554 -0.41574073
0.12681608 0.08881274 -0.027258305 -0.43395725 -2.0662212 0.00031394983 0.044367295 0.05554318
-0.4248875 -0.26688302 -0.090889245 -0.50441283 0.23394732 -0.4108909 -0.03331593 -0.64538443
-0.37763053 -0.042438287 0.0042360816 -0.8262709 0.00088424684 -0.1684579 0.7372782 -0.32837024
-0.00052250567 0.10181554 -0.6448095 0.12910204 -0.417946 -0.5932733 -0.2480179 -0.0016697953
-0.5176306 -0.9935917 0.19067039 -0.6797087 0.22493203 0.00029789473 -0.62857527 -1.0590804
-0.017592542 -0.015285215 0.1620388 0.22766255 0.028341033 0.033026297 3.1061427e-05 -0.11416329
0.09244699 -0.6474406 0.09157015 0.43781778 0.18064258 0.68034023 -0.030522976 0.19836302
0.036002588 -0.7432442 0.110835746 0.00065170834 -0.3916613 -0.63111025 -0.3598352 0.16351488
-6.9669746e-05 -0.5599546 0.19156606 -0.49067473 0.015488203 0.25950333 0.115577996 -0.48587388
-0.55904984 0.007499718 -0.1598212 0.03729285 -0.30495486 0.11277093 0.184428 0.2827129
0.20696016 0.07122441 -0.49058625 0.24713063 0.20882384 -0.04586645 0.23264554 -0.6067468
-0.45661244 0.17892346 -0.8163487 -0.008784639 0.122216575 0.37960905 0.041248914 -0.001986308
0.21851371 5.3590586e-05 -0.26356107 0.18172793 -0.0034946029 0.05945206 -0.40848896 -0.00013275068
-0.26527563 0.005345916 -0.55887204 -0.34960887 -0.32972834 -2.3528202e-08 0.15464225 -0.0050979634
0.2924787 -0.014674166 0.18967065 0.07734869 -0.25983277 0.45921206 -0.6883824 -0.9002231
-0.2740151 0.10826912 -0.3703596 0.00078275567 -0.3195854 0.22858395 0.18733342 -0.24770774
-0.5399021 0.017221272 0.003199488 0.08709443 -0.45033768 0.19355135 -0.46098313 0.19928488
0.015274349 0.24390216 0.20033723 -0.5681218 -0.09928961 0.010224358 -0.015465668 -0.7182785
0.08334493 -0.61445373 0.037041564 -0.5100927 -0.00043783718 0.061854314 0.42037848 0.06143903
4.901598e-05 -0.74290377 0.28434917 -0.6773074 -0.0206295 0.13517344 0.11609211 0.038788542
00000000: 2e1b fb3d 25aa 463c 1314 37bf 0f20 16bd
00000010: 0aba 043e c261 db39 e6be b9bd 40b3 5ebf
00000020: 45c6 903c 49f9 473d 5b41 cfbb 0853 893d
00000030: 8c1a 2f3c 75d1 18be 0be4 613b 149d 17bf
00000040: 8607 333e 4cd2 053e 162a 95be 8651 44bf
00000050: 9031 123d f239 7abd d6ec a53b 82c8 3c3e
00000060: c198 5f3c 3ee7 a03d a7da b0bc de09 a43a
00000070: 6f16 11bf e63a f43d ba24 513d 660e 163d
00000080: 96a5 e338 3bf0 1c3e 3c79 3abf 9469 d73d
00000090: bf94 49bc 0692 1a3e c877 563c 7964 0e3e
000000a0: cf82 253e 858c 273c 850d 10bf 3692 2dbd
000000b0: 2152 33bf 3227 013e daed 863d 88b7 1bbf
000000c0: 8d04 12bf bd18 84be 3351 283e 9c6e 733d
000000d0: e282 83bf 0444 e13c 1e11 3e3d 6a1d 0abf
000000e0: a517 83be a315 94bf 5c6c 65be 77a7 2bbd
000000f0: cda7 b03e 6fbc 36be a909 7c3c af87 dc3c
00000100: fb45 f7bc fe7c 17ba 01f8 ebbe 0816 5dbe
00000110: 45f5 cc39 017c acbe 4da3 08bf ef1b 73b9
00000120: 5508 2cbf 7851 053d 6052 023e 93d0 1b3e
00000130: f634 35bf 5052 0b32 dc7e 243e df38 8abf
00000140: 6a28 a8be 107d 213c 8a70 013e 3879 8e3c
00000150: e5f7 0cbf afd9 5a3f 4811 d43d cd11 94bf
00000160: f7af 1dbf 64ed 8f3d 392d 2e3e 2855 703a
00000170: d57f 36bf b22a 013e be5d 34bf f8db d4be
00000180: 13dc 013e 74e3 b53d cf4c dfbc a52f debe
00000190: f83c 04c0 a299 a439 7bba 353d 3f81 633d
000001a0: db8a d9be e4a4 88be 2424 babd 3321 01bf
000001b0: e38f 6f3e 4b60 d2be 4976 08bd ea37 25bf
000001c0: ca58 c1be c5d3 2dbd d4ce 8a3b 7d86 53bf
000001d0: cdcc 673a 3a80 2cbe 44be 3c3f 2520 a8be
000001e0: c3f8 08ba aa84 d03d 3c12 25bf 5333 043e
000001f0: 05fd d5be c2e0 17bf 68f8 7dbe 08dd daba
00000200: 7083 04bf 075c 7ebf 193f 433e 6401 2ebf
00000210: 9554 663e c12e 9c39 4fea 20bf f28f 87bf
00000220: 3c1e 90bc d76e 7abc 80ed 253e 5f20 693e
00000230: 742b e83c 9546 073d f447 0238 71ce e9bd
00000240: d954 bd3d abbe 25bf 2189 bb3d a729 e03e
00000250: 5efa 383e c72a 2e3f 520b fabc ad1f 4b3e
00000260: 7377 133d 4045 3ebf dafd e23d 68d7 2a3a
00000270: d487 c8be 7190 21bf 523c b8be 7270 273e
00000280: a91b 92b8 2f59 0fbf e529 443e b839 fbbe
00000290: 3bc2 7d3c 9fdd 843e 28b4 ec3d 76c4 f8be
000002a0: e41d 0fbf 32c0 f53b 2ba8 23be 63c0 183d
000002b0: 0b23 9cbe 72f4 e63d b2da 3c3e bfbf 903e
000002c0: 5ded 533e 1ade 913d 1f2e fbbe d00f 7d3e
000002d0: ebd5 553e 75de 3bbd a23a 6e3e c253 1bbf
000002e0: 1bc9 e9be b637 373e 3afc 50bf 72ed 0fbc
000002f0: af4c fa3d 1e5c c23e 9ff4 283d b82c 02bb
00000300: 0fc2 5f3e 74c6 6038 7af1 86be e316 3a3e
00000310: b505 65bb 0184 733d 7725 d1be fd32 0bb9
00000320: 35d2 87be cb2c af3b 3d12 0fbf efff b2be
00000330: 27d2 a8be 101b cab2 8a5a 1e3e d10c a7bb
00000340: c5bf 953e ea6b 70bc 0639 423e fd68 9e3d
00000350: cd08 85be d81d eb3e d439 30bf 0575 66bf
00000360: b54b 8cbe 33bc dd3d c69f bdbe d831 4d3a
00000370: b3a0 a3be e911 6a3e 55d4 3f3e 19a7 7dbe
00000380: 0637 0abf a013 8d3c 80ae 513b 915e b23d
00000390: a992 e6be 5332 463e fb05 ecbe 5611 4c3e
000003a0: 4341 7a3c 7dc1 793e 3425 4d3e 6e70 11bf
000003b0: 5a58 cbbd 1184 273c b763 7dbc 1ae1 37bf
000003c0: bfb0 aa3d d74c 1dbf e5b8 173d 6f95 02bf
000003d0: 838d e5b9 f35a 7d3d d93b d73e 7ea7 7b3d
000003e0: 8296 4d38 f12e 3ebf 3796 913e 0564 2dbf
000003f0: 32ff a8bc e86a 0a3e b3c1 ed3d bce0 1e3d

bias f4 [5]
0.08120014 0.07361727 0.020212026 -0.13073497 0.11407216
00000000: 424c a63d a7c4 963d b193 a53c 63df 05be
00000010: aa9e e93d
