SN_mnist/main_t.pth (torch, 197563 bytes, 10 tensors)

weight f4 [32, 1, 2, 2]
0.27919766 0.91488755 -0.72467536 1.0712954 -0.20927435 0.8826171 0.16091467 0.20622194
0.2507542 -0.9443919 0.9188401 -0.63886434 -0.09612169 -0.12980363 0.011131348 0.7161255
-0.61877453 0.21152778 0.22442615 0.86783236 0.085902885 -0.88379335 -0.97107744 0.573546
0.91024196 0.38652614 -0.85075295 -0.74863225 0.97630394 -0.61219126 -0.034887575 -1.2958053
1.1339829 0.1239808 -0.37994546 0.67190963 0.72575647 0.71470183 0.5063319 0.659351
0.4213506 0.39210692 0.7781985 0.6433745 -0.0021078587 -0.35946268 -0.3549279 -0.30535787
-0.68116665 -0.6699696 0.8140349 0.44172683 0.5989351 0.26051486 0.9368799 0.369991
-0.22350049 -0.20724651 -1.0590512 -0.96124756 -0.58160245 0.8899853 0.49286848 0.8899313
0.35338685 -0.6354768 0.53800505 0.8279326 -0.46269375 -0.16301376 0.08900881 0.021593034
-0.3750706 0.31484514 -0.42419773 0.7519155 0.3504878 0.52964056 -0.66793424 0.6229617
0.5012508 0.9340563 0.5520722 0.050161116 0.70254135 0.16851941 -0.7864181 -0.517728
0.82409894 0.719638 -0.048080333 0.37166134 -0.3765066 0.05021024 0.57429034 -0.33716506
0.55232775 -0.7831268 0.2901489 0.4862096 0.44858697 -0.1420523 1.141565 -0.0022190379
0.81192905 -0.7926089 0.4530174 -1.0088977 -0.1388079 0.030327797 -0.4872678 -0.13174027
-1.1348028 -0.54851633 0.34026045 1.3031563 0.7053301 0.75582683 -0.81255996 -0.6305162
-0.17667454 -0.26361367 -0.8875433 -0.57097995 0.34587237 0.7233642 0.5608684 0.66980445
00000000: fff2 8e3e 1236 6a3f 5384 39bf 3520 893f
00000010: 044c 56be 32f3 613f d1c6 243e d82b 533e
00000020: db62 803e abc3 71bf 1b39 6b3f 9d8c 23bf
00000030: 73db c4bd 3eeb 04be 4260 363c 0054 373f
00000040: 0268 1ebf bd9a 583e f8cf 653e 432a 5e3f
00000050: daed af3d 4840 62bf 8898 78bf e9d3 123f
00000060: 9e05 693f c1e6 c53e f2ca 59bf 5da6 3fbf
00000070: 0eef 793f 91b8 1cbf 46e6 0ebd f3dc a5bf
00000080: 5a26 913f a5e9 fd3d 3688 c2be 4502 2c3f
00000090: 2dcb 393f b3f6 363f f89e 013f 3acb 283f
000000a0: 44bb d73e 3dc2 c83e 0438 473f 31b4 243f
000000b0: 0024 0abb 7e0b b8be 1cb9 b5be de57 9cbe
000000c0: f060 2ebf 2183 2bbf 9764 503f 052a e23e
000000d0: d053 193f 3462 853e 5cd7 6f3f 766f bd3e
000000e0: 50dd 64be 6e38 54be fd8e 87bf 5214 76bf
000000f0: e6e3 14bf 14d6 633f 4259 fc3e 8ad2 633f
00000100: 1fef b43e 9cae 22bf b3ba 093f 64f3 533f
00000110: 32e6 ecbe 14ed 26be 404a b63d e0e3 b03c
00000120: 4109 c0be 6233 a13e 7230 d9be 897d 403f
00000130: 2373 b33e 8696 073f bdfd 2abf 6b7a 1f3f
00000140: f951 003f 501e 6f3f 9b54 0d3f be75 4d3d
00000150: c0d9 333f 5a90 2c3e b252 49bf d289 04bf
00000160: 26f8 523f 323a 383f e2ef 44bd 654a be3e
00000170: 79c5 c0be 41a9 4d3d b104 133f e6a0 acbe
00000180: 5a65 0d3f ff7a 48bf 668e 943e 77f0 f83e
00000190: 31ad e53e 2876 11be cd1e 923f 476d 11bb
000001a0: 95da 4f3f 6be8 4abf e6f1 e73e 8f23 81bf
000001b0: a823 0ebe 0072 f83c 2a7b f9be ece6 06be
000001c0: 3841 91bf 916b 0cbf 9e36 ae3e d3cd a63f
000001d0: 8390 343f de7d 413f ee03 50bf 8269 21bf
000001e0: 2cea 34be 5ff8 86be 0a36 63bf be2b 12bf
000001f0: 2f16 b13e 652e 393f 1295 0f3f 4e78 2b3f

bias f4 [32]
0.0009988252 -0.007329544 0.3887526 -0.1790042 0.14380826 0.33281368 0.30610332 0.33459273
0.030180275 -0.009697914 0.029521389 -0.11124492 0.09507255 -0.006732643 0.577726 -0.00515686
-0.026331894 -0.4191413 -0.001733401 0.3303462 -0.045782506 0.4378468 0.032857038 0.34217513
-0.050236475 -0.07690844 0.5085833 -0.11469275 0.0016955958 -0.0016617958 0.8087992 0.06608762
00000000: 03eb 823a ac2c f0bb 950a c73e e14c 37be
00000010: 7942 133e 8e66 aa3e 93b9 9c3e bd4f ab3e
00000020: a03c f73c 00e4 1ebc d7d6 f13c 60d4 e3bd
00000030: 66b5 c23d 819d dcbb dae5 133f e1fa a8bb
00000040: fcb5 d7bc b099 d6be 4933 e3ba 2323 a93e
00000050: 7086 3bbd 752d e03e 1a95 063d 9431 af3e
00000060: c3c4 4dbd 2c82 9dbd 8432 023f 08e4 eabd
00000070: c13e de3a 9dd0 d9ba 770d 4f3f f258 873d

weight f4 [64, 32, 2, 2]
0.14867148 0.27673855 -0.21795446 0.04394908 -0.019016119 0.2505911 -0.078279994 -0.06707801
-0.03300223 -0.02464723 0.011833097 -0.16221909 -0.009366397 0.14093868 -0.09652697 -0.04313516
-0.13778375 0.085798495 -0.1651449 -0.10953674 -0.038928416 -0.11063516 -0.1008477 -0.08389254
0.07531247 -0.013357368 -0.0058102724 0.46423298 -0.25628787 -0.07906439 -0.3045952 0.09658424
0.08401959 0.27090186 -0.39285108 0.04474624 0.06296199 0.19046842 -0.15806815 -0.059539422
0.015172496 0.17582442 -0.24334097 -0.11880941 -0.061947342 0.07548014 -0.071697414 0.030792259
0.12415149 0.04442786 0.263783 0.22105496 -0.043547533 0.21527259 -0.43822473 -0.07624608
0.021580746 -0.02691481 0.074562885 0.18820113 -0.06143201 0.24307498 -0.22492927 -0.15081559
-0.039599627 -0.021456439 -0.3821869 -0.0951059 0.005507581 0.01690033 -0.0034343898 0.0025459304
-0.07673335 -0.018474251 -0.31622747 -0.06548872 0.08946317 0.10108809 -0.09359152 0.057539195
0.04231941 0.16521502 -0.21136342 -0.0708337 0.09329302 0.06712942 -0.049928207 0.23508412
0.13299835 0.24758969 -0.2755826 0.05707612 -0.10727401 0.054837655 -0.004785569 -0.09637641
-0.012383467 0.026010444 -0.32960832 -0.04509643 -0.18385935 0.13078022 -0.3705492 -0.21042442
-0.15412328 0.034586728 -0.2529944 0.03147293 -0.003742598 0.068184055 -0.01710885 -0.06793995
0.027404564 -0.0011075551 0.22241296 0.023476021 0.19393294 0.13336687 0.33523276 0.8345931
0.048015036 0.035302732 0.06246074 0.1491841 0.02625191 0.13812289 -0.34471798 -0.06478385
-0.17353289 -0.13076517 0.013465492 0.06825428 -0.24388346 -0.030207423 0.032622132 0.10407772
0.047347095 -0.060958717 -0.091258004 -0.24417238 -0.12404092 -0.025546964 0.1293349 0.08377918
-0.041103248 0.0044473987 0.12345286 0.11001557 0.29094574 0.33355793 0.017929643 0.1680123
0.47151673 0.20136707 -0.14160936 -0.11091841 0.08085878 -0.14987588 -0.2326989 -0.32233563
-0.06699972 -0.3163129 0.15005806 0.10485942 -0.16248542 -0.19793859 0.15355586 0.19354673
-0.04489627 -0.19873512 0.09266646 0.16196287 -0.06645304 -0.048986018 0.0650843 -0.07677437
0.58095 0.49618885 0.41623038 0.30455086 -0.16204184 -0.19761172 0.23610535 0.07419427
0.13201483 0.10737827 -0.4914202 -0.2211705 -0.27960247 0.026294053 0.24215603 0.24035041
-0.00896032 0.049192313 0.37355736 0.26901534 0.006314181 -0.014851294 -0.013140567 -0.027601402
-0.38316822 0.12769194 0.14199863 0.20617472 -0.06981268 -0.07976004 0.049039144 0.0842486
-0.19436622 -0.17105168 0.07597584 0.20005403 0.106265344 0.04342983 -0.18139862 -0.039595243
-0.15604419 -0.2507462 0.20431279 0.17159645 -0.05718251 0.0368728 0.1321836 0.10124591
0.089980625 -0.14462534 0.3717718 0.10788973 -0.064363316 -0.23519051 0.3081602 0.13444826
0.061052233 -0.10690191 -0.08772582 -0.3295855 -0.054331206 -0.08127006 -0.07089595 -0.056244906
0.77402514 0.5848731 -0.006572364 0.014979429 0.7723205 0.11770389 0.057746913 0.22526602
0.061064556 0.18944462 -0.2005293 -0.06871291 -0.2804374 -0.21185502 0.11577385 0.081656665
00000000: 563d 183e adb0 8d3e 742f 5fbe f303 343d
00000010: b1c7 9bbc 7a4d 803e 4351 a0bd 3260 89bd
00000020: 592d 07bd fde8 c9bc 9bdf 413c c31c 26be
00000030: 8475 19bc 3b52 103e efaf c5bd 7eae 30bd
00000040: 2f17 0dbe 1fb7 af3d bf1b 29be cc54 e0bd
00000050: 6773 1fbd b094 e2bd 3d89 cebd dacf abbd
00000060: 6d3d 9a3d ddd8 5abc 1964 bebb f2af ed3e
00000070: 2a38 83be 83ec a1bd e7f3 9bbe f5cd c53d
00000080: 7612 ac3d a6b3 8a3e c723 c9be d547 373d
00000090: 37f2 803d 270a 433e 9edc 21be 9cdf 73bd
000000a0: 1096 783c 510b 343e 602e 79be 5952 f3bd
000000b0: 7fbc 7dbd 5595 9a3d 18d6 92bd 0c40 fc3c
000000c0: 2343 fe3d fdf9 353d 910e 873e 3b5c 623e
000000d0: e65e 32bd 6b70 5c3e fe5e e0be e826 9cbd
000000e0: 1bca b03c 737c dcbc 6db4 983d ccb7 403e
000000f0: 22a0 7bbd a6e8 783e dc53 66be 676f 1abe
00000100: 3833 22bd 6ac5 afbc 00ae c3be e2c6 c2bd
00000110: f078 b43b 9072 8a3c 8013 61bb a0d9 263b
00000120: 6026 9dbd 5057 97bc 91e8 a1be f31e 86bd
00000130: 7738 b73d 4607 cf3d e9ac bfbd 38ae 6b3d
00000140: 1e57 2d3d 202e 293e a76f 58be 4211 91bd
00000150: 6910 bf3d 267b 893d 8581 4cbd e4b9 703e
00000160: b830 083e 2788 7d3e 2a19 8dbe a6c8 693d
00000170: 7ab2 dbbd 739d 603d 43d0 9cbb ff60 c5bd
00000180: 06e4 4abc db13 d53c 6cc2 a8be 09b7 38bd
00000190: a045 3cbe 40eb 053e a0b8 bdbe 8079 57be
000001a0: 7ed2 1dbe d0aa 0d3d 7b88 81be c2e9 003d
000001b0: 6046 75bb 15a4 8b3d dc27 8cbc 1a24 8bbd
000001c0: 897f e03c 622b 91ba 39c0 633e c950 c03c
000001d0: 5b96 463e 5391 083e a1a3 ab3e e5a7 553f
000001e0: 6aab 443d 9999 103d d5d6 7f3d b7c3 183e
000001f0: 3f0e d73c 1670 0d3e e07e b0be 65ad 84bd
00000200: 9bb2 31be 4ee7 05be 5e9e 5c3c e6c8 8b3d
00000210: 96bc 79be 8f75 f7bc c99e 053d b326 d53d
00000220: 07ef 413d d9af 79bd 7ae5 babd 5308 7abe
00000230: 2a09 febd de47 d1bc 5e70 043e 6b94 ab3d
00000240: e15b 28bd 7cbb 913b dad4 fc3d d84f e13d
00000250: d7f6 943e 1bc8 aa3e 30e1 923c 6b0b 2c3e
00000260: a46a f13e 2b33 4e3e 0b02 11be 3129 e3bd
00000270: 4a99 a53d 1079 19be 9f48 6ebe 2d09 a5be
00000280: 2637 89bd c4f3 a1be d2a8 193e 89c0 d63d
00000290: 9462 26be 6ab0 4abe bf3d 1d3e 1d31 463e
000002a0: 27e5 37bd 3881 4bbe eac7 bd3d 98d9 253e
000002b0: 8818 88bd 90a5 48bd eb4a 853d e23b 9dbd
000002c0: 24b9 143f 770c fe3e 261c d53e 17ee 9b3e
000002d0: 4cee 25be ba5a 4abe 9ac5 713e 2af3 973d
000002e0: e52e 073e 23e9 db3d 6e9b fbbe 857a 62be
000002f0: 0e28 8fbe a066 d73c c0f7 773e 6b1e 763e
00000300: 4ece 12bc e17d 493d e942 bf3e 61bc 893e
00000310: 30e7 ce3b d852 73bc 884b 57bc 561c e2bc
00000320: a02e c4be adc1 023e 1768 113e 771f 533e
00000330: f3f9 8ebd 3b59 a3bd 45dd 483d 888a ac3d
00000340: f007 47be 2c28 2fbe 3999 9b3d f7da 4c3e
00000350: a5a1 d93d 7ae3 313d 8fc0 39be 9f2e 22bd
00000360: 0cca 1fbe ce61 80be 5f37 513e fbb6 2f3e
00000370: 3538 6abd ef07 173d 235b 073e 045a cf3d
00000380: c347 b83d aa18 14be e058 be3e 4af5 dc3d
00000390: ead0 83bd c8d5 70be 2cc7 9d3e ceac 093e
000003a0: e811 7a3d 63ef dabd 98a9 b3bd 6ebf a8be
000003b0: 668a 5ebd eb70 a6bd e531 91bd 0f61 66bd
000003c0: 8326 463f 3eba 153f fc5c d7bb 476c 753c
000003d0: ccb6 453f bd0e f13d 0788 6c3d 23ac 663e
000003e0: d41e 7a3d c5fd 413e 8e57 4dbe 5bb9 8cbd
000003f0: 7e95 8fbe 86f0 58be d71a ed3d 9c3b a73d

bias f4 [64]
-0.11603648 -0.15051588 -0.119263396 -0.121377446 -0.050143573 -0.020769225 -0.14059098 -0.11305767
-0.16616535 -0.06520808 -0.107340224 -0.046575554 0.011387363 -0.08304403 0.003080052 -0.054753494
-0.09527565 0.2638589 0.14366958 0.07786344 -0.07791917 -0.08902954 -0.08258737 -0.08481683
-0.117062174 -0.0116561 0.056627642 -0.098545626 -0.13825002 -0.013771816 0.39542502 0.12350196
0.02769472 -0.055392437 -0.07336775 0.29700047 -0.09340818 -0.057450257 -0.06462008 -0.11286038
-0.061814714 -0.013170746 -0.05592577 -0.12424855 0.09102734 0.08417545 -0.052254844 -0.0764651
-0.07627633 0.1271068 -0.105686985 -0.1520255 0.03864272 0.010745709 -0.21068847 -0.05169445
-0.16029337 -0.05966612 0.07012286 0.018835412 0.32565042 0.05181271 -0.15022643 -0.03103375
00000000: 89a4 edbd d620 1abe 5e40 f4bd bd94 f8bd
00000010: 5963 4dbd 3924 aabc 15f7 0fbe c88a e7bd
00000020: 4027 2abe d08b 85bd 31d5 dbbd 02c6 3ebd
00000030: 1092 3a3c fd12 aabd b3da 493b 3345 60bd
00000040: e11f c3bd 8418 873e 1e1e 133e de76 9f3d
00000050: 1694 9fbd 1f55 b6bd 9123 a9bd 72b4 adbd
00000060: 4bbe efbd 3af9 3ebc 63f2 673d 4ad2 c9bd
00000070: 6a91 0dbe 2fa3 61bc 2675 ca3e 98ee fc3d
00000080: 0ae0 e23c 2ee3 62bd d541 96bd 7210 983e
00000090: ca4c bfbd f650 6bbd 8857 84bd 5823 e7bd
000000a0: 6d31 7dbd 1dca 57bc 6c12 65bd 0676 febd
000000b0: 8b6c ba3d 2e64 ac3d 2d09 56bd bc99 9cbd
000000c0: c436 9cbd 4928 023e 6b72 d8bd 93ac 1bbe
000000d0: d447 1e3d c50e 303c b8be 57be 8fbd 53bd
000000e0: f223 24be 7664 74bd 939c 8f3d b94c 9a3c
000000f0: a7bb a63e 9039 543d f5d4 19be 7e3a febc

weight f4 [128, 64, 2, 2]
-0.16116157 0.1715323 -0.06316516 -0.053088874 0.12392202 -0.12051225 0.09469386 0.1654357
0.14182769 -0.0059133265 -0.021299817 -0.006702559 0.05105026 0.12034952 -0.22362167 -0.016999455
-0.03754804 0.04811855 -0.1438002 0.030377494 -0.008443122 -0.052526463 0.05933355 0.0011848788
-0.013039915 0.15635268 0.08244728 -0.114692576 -0.21618782 0.058412015 -0.1892557 -0.03870978
0.056866594 0.1877533 0.013682732 -0.012056406 0.09266285 0.013784555 0.0393428 -0.013635433
0.169499 0.026617806 -0.05877873 0.11539823 0.031046921 0.012414772 0.05807062 -0.050547678
-0.0027202517 -0.02884753 -0.035755515 -0.059031956 -0.031372722 0.025882065 -0.04127678 0.061281633
-0.052957516 0.1525964 0.015872695 -0.15124075 0.1539566 -0.15004948 0.057330467 -0.024392102
0.16324757 -0.14306085 0.08144039 -0.15046287 -0.15910994 -0.10837766 0.18734924 -0.566433
-0.10809605 0.019398956 -0.16903119 -0.09270414 0.13590194 -0.03114694 -0.42977592 0.0361348
-0.010937439 -0.052011304 0.011997272 -0.016432602 -0.028221231 0.038279843 0.0043121446 0.0406734
-0.3136957 0.28377694 0.24552126 0.039829977 0.06237703 0.015309006 0.04981149 -0.0029191747
-0.025114773 -0.041586876 -0.030041149 -0.047749296 -0.061344665 -0.016003793 0.00024244434 0.04252184
0.03738029 0.07625226 0.11510262 -0.08336048 0.15775828 0.042342782 -0.2789346 0.072875105
0.10811416 0.12489734 -0.080538 0.09832096 -0.007811951 0.022396816 0.0419316 0.043878324
0.088976555 0.0050902455 -0.22811247 0.01855042 -0.39526334 0.23349017 -0.017401678 -0.17154369
-0.28227666 1.3201425e-05 0.14474472 0.047311123 0.11148191 -0.099518225 0.11003566 -0.029967383
0.0053871213 0.00595215 -0.0036061825 -0.04150147 -0.18722384 0.115410596 -0.12328181 -0.24042176
0.044138584 -0.015901543 0.1287409 -0.10024147 -0.05904852 -0.035302773 0.054927602 0.004127994
0.042799562 -0.0539845 0.03217461 -0.030436493 0.00073954335 0.10545099 -0.0926503 0.02573493
0.16716541 0.10715467 -0.11052955 -0.0488025 0.048728287 -0.027094407 0.075355835 -0.12006141
-0.23434466 0.07585879 0.13008055 -0.0011286129 -0.04258447 0.0041185943 0.00022627672 0.008003198
0.14451037 -0.23198535 -0.14318049 -0.36545727 -0.26018545 0.16543354 0.09356331 -0.17645861
0.036387295 0.021661488 0.05207894 -0.009242514 0.107826084 0.050634358 -0.23724839 0.16615026
0.031683788 -0.010457678 -0.014174986 0.08590851 0.0945139 -0.011510731 0.041213565 -0.06716096
-0.14978896 0.22485708 0.074085 0.17972896 0.022327777 0.19677064 -0.2534876 0.08451764
0.030994417 -0.058473334 -0.0067350175 -0.15020338 -0.0502031 0.01909933 0.0663802 -0.079681255
-0.13755278 -0.12861432 0.14636713 0.1098787 -0.1634743 -0.09793914 0.0015435213 -0.20998721
-0.06825776 0.1887762 -0.16177613 -0.019728944 0.029556893 0.0144541785 0.051201425 0.05053574
-0.18111861 -0.08820851 0.078250654 -0.2072259 0.0016962368 -0.19262235 -0.3057755 -0.12937005
-0.28649715 0.049617507 -0.13079756 -0.039582837 -0.15550774 0.08264359 -0.22621629 0.09519472
0.014593929 0.018614816 0.06107245 -0.21932426 0.011775895 0.086623535 -0.10469515 -0.13751164
00000000: 8a07 25be 2aa6 2f3e bc5c 81bd b873 59bd
00000010: d4ca fd3d 20cf f6bd dbee c13d fa67 293e
00000020: 473b 113e 94c4 c1bb f47c aebc 24a1 dbbb
00000030: 141a 513d cf79 f63d 14fd 64be 7142 8bbc
00000040: f9cb 19bd f517 453d 5c40 13be 39da f83c
00000050: 0555 0abc fd25 57bd bd07 733d ef4d 9b3a
00000060: 5ea5 55bc eb1a 203e 1fda a83d f1e3 eabd
00000070: 5760 5dbe 7041 6f3d 3fcc 41be 258e 1ebd
00000080: f2ec 683d 6742 403e 8a2d 603c 3b88 45bc
00000090: 05c6 bd3d 9dd8 613c ea25 213d 2767 5fbc
000000a0: 2591 2d3e 960d da3c f7c1 70bd e855 ec3d
000000b0: 1d56 fe3c 5467 4b3c 75db 6d3d 150b 4fbd
000000c0: 4046 32bb a851 ecbc 6074 12bd 7ecb 71bd
000000d0: af80 00bd a006 d43c d711 29bd 7302 7b3d
000000e0: fbe9 58bd 3b42 1c3e 7407 823c dbde 1abe
000000f0: cda6 1d3e 92a6 19be 5ad3 6a3d f2d1 c7bc
00000100: 5f2a 273e 8b7e 12be 38ca a63d f012 1abe
00000110: b7ed 22be 1bf5 ddbd 7bd8 3f3e c101 11bf
00000120: 7661 ddbd 8fea 9e3c 8316 2dbe abdb bdbd
00000130: e129 0b3e de27 ffbc 970b dcbe 1602 143d
00000140: f232 33bc ce09 55bd 3590 443c aa9d 86bc
00000150: 3630 e7bc 53cb 1c3d e44c 8d3b 2799 263d
00000160: b99c a0be 364b 913e ed69 7b3e c224 233d
00000170: 0e7f 7f3d a0d2 7a3c 2207 4c3d a04f 3fbb
00000180: 7fbd cdbc 0057 2abd db18 f6bc c494 43bd
00000190: 8b44 7bbd 631a 83bc a838 7e39 622b 2e3d
000001a0: 131c 193d 252a 9c3d ecba eb3d e6b8 aabd
000001b0: 638b 213e a06f 2d3d 84d0 8ebe 8b3f 953d
000001c0: f56a dd3d 2dca ff3d 1bf1 a4bd 805c c93d
000001d0: 65fb ffbb 8779 b73c 78c0 2b3d c2b9 333d
000001e0: 5739 b63d 13cc a63b 5196 69be 0df7 973c
000001f0: f55f cabe 0c18 6f3e f78d 8ebc 26a9 2fbe
00000200: 9186 90be b07b 5d37 f637 143e 4fc9 413d
00000210: a150 e43d 36d0 cbbd 605a e13d 287e f5bc
00000220: 7386 b03b 410a c33b b455 6cbb 72fd 29bd
00000230: 9bb7 3fbe 645c ec3d 2c7b fcbd 1f31 76be
00000240: a9ca 343d f443 82bc a8d4 033e 664b cdbd
00000250: dcdc 71bd a499 10bd c4fb 603d 2044 873b
00000260: 984e 2f3d da1e 5dbd 86c9 033d f455 f9bc
00000270: eadd 413a b0f6 d73d 71bf bdbd 0fd2 d23c
00000280: 692d 2b3e e873 db3d 515d e2bd 21e5 47bd
00000290: 5097 473d 17f5 ddbc 2954 9a3d c2e2 f5bd
000002a0: 0cf8 6fbe da5b 9b3d d633 053e f7ed 93ba
000002b0: 0e6d 2ebd 46f5 863b b244 6d39 d81f 033c
000002c0: 87fa 133e 918d 6dbe e89d 12be 371d bbbe
000002d0: 0737 85be 6967 293e 1f9e bf3d 91b1 34be
000002e0: d80a 153d 6f73 b13c ba50 553d ea6d 17bc
000002f0: ecd3 dc3d f965 4f3d 3ef1 72be 4b23 2a3e
00000300: dcc6 013d ae56 2bbc 333e 68bc cdf0 af3d
00000310: 8190 c13d 8197 3cbc 8ecf 283d af8b 89bd
00000320: 4762 19be ef40 663e e0b9 973d de0a 383e
00000330: bee8 b63c 3e7e 493e 20c9 81be 9617 ad3d
00000340: 01e8 fd3c bc81 6fbd 6cb1 dcbb eace 19be
00000350: c4a1 4dbd 3376 9c3c 58f2 873d ed2f a3bd
00000360: a3da 0cbe 79b3 03be 44e1 153e 1508 e13d
00000370: cf65 27be 5194 c8bd fb4f ca3a e306 57be
00000380: b9ca 8bbd 8c4e 413e a4a8 25be 989e a1bc
00000390: 4c21 f23c 38d1 6c3c 96b8 513d 90fe 4e3d
000003a0: 2877 39be aaa6 b4bd e141 a03d 0733 54be
000003b0: 4354 de3a cb3e 45be 9b8e 9cbe 9579 04be
000003c0: c1af 92be ba3b 4b3d ccef 05be 9d21 22bd
000003d0: 6c3d 1fbe 0b41 a93d 3ea5 67be 73f5 c23d
000003e0: 601b 6f3c 197e 983c 1b27 7a3d 8a96 60be
000003f0: afef 403c ae67 b13d 696a d6bd dacf 0cbe

bias f4 [128]
0.012264389 -0.01126417 -0.12281542 -0.043928247 -0.014845397 -0.02164453 -0.0783217 -0.08917735
-0.14996147 -0.025242466 0.03605377 -0.04432897 -0.084847495 -0.05947773 -0.03210666 -0.070550784
-0.022546811 -0.08699845 -0.09977145 -0.0540055 -0.083166495 -0.05763631 -0.014196426 -0.053630747
-0.10339319 -0.10666229 -0.03222656 -0.009282079 0.00928215 -0.03094309 0.014561423 -0.00030996933
0.03290672 -0.101128414 0.058309127 0.05052017 -0.02811946 -0.10205114 -0.036890686 -0.18268348
-0.089784734 -0.09904533 -0.039118864 -0.0768135 -0.10744821 -0.124592856 -0.08182602 -0.055804286
-0.10144508 -0.046128124 -0.076737486 0.020746615 -0.033494595 -0.030417837 -0.07342727 -0.20149407
-0.031356335 0.03786969 0.020546505 -0.105439 -0.040058687 -0.00074137095 -0.03918917 -0.011756059
-0.06888117 -0.04027974 -0.03488478 -0.02938074 -0.00892368 0.02545007 -0.079029575 -0.011800202
-0.021186652 -0.12002593 0.025608484 -0.051087424 0.044429068 -0.12628807 -0.06024268 -0.07692827
-0.00013528648 -0.015645623 -0.09408009 0.018333148 -0.06899891 -0.08573039 -0.04077049 -0.12419014
0.026185116 -0.11820249 -0.1133045 0.032741293 -0.06307776 -0.09572708 -0.03864011 0.055526026
-0.031675804 -0.088012494 -0.12067729 -0.054732136 -0.082714185 -0.068665355 -0.0014622146 -0.08386203
-0.02745688 -0.16931412 -0.05320485 -0.080644436 -0.07940467 -0.16775891 -0.055116024 -0.1607366
-0.045271266 0.045965992 -0.08712384 -0.11552702 -0.06884576 -0.03468165 -0.051192705 -0.13115086
0.0095338095 -0.056118198 0.021528814 -0.08490743 -0.06276882 0.0019359569 -0.06373359 0.045535624
00000000: 93f0 483c 5a8d 38bc a786 fbbd 1bee 33bd
00000010: 1c3a 73bc df4f b1bc 2167 a0bd 9da2 b6bd
00000020: 808f 19be 4ac9 cebc 1ead 133d 4b92 35bd
00000030: 86c4 adbd ec9e 73bd 4682 03bd ee7c 90bd
00000040: 17b4 b8bc 3e2c b2bd f954 ccbd df34 5dbd
00000050: 3253 aabd 0d14 6cbd 2098 68bc eaab 5bbd
00000060: cfbf d3bd c271 dabd ffff 03bd dc13 18bc
00000070: 2914 183c 5d7c fdbc 0993 6e3c 6183 a2b9
00000080: 32c9 063d 6a1c cfbd 8dd5 6e3d 3dee 4e3d
00000090: c85a e6bc 3000 d1bd b01a 17bd 6111 3bbe
000000a0: 0fe1 b7bd 47d8 cabd 1a3b 20bd 6550 9dbd
000000b0: cf0d dcbd 8a2a ffbd 6694 a7bd 0993 64bd
000000c0: 70c2 cfbd d8f0 3cbd 8b28 9dbd cef4 a93c
000000d0: a131 09bd d42e f9bc 0961 96bd 7654 4ebe
000000e0: 806f 00bd 401d 1b3d 2551 a83c 67f0 d7bd
000000f0: 9414 24bd 9058 42ba d384 20bd 7c9c 40bc
00000100: 9211 8dbd 5efc 24bd 58e3 0ebd e1af f0bc
00000110: a034 12bc aa7c d03c 42da a1bd a255 41bc
00000120: a18f adbc 28d0 f5bd e2c8 d13c 0c41 51bd
00000130: 41fb 353d a951 01be 07c1 76bd 928c 9dbd
00000140: b0db 0db9 402b 80bc 10ad c0bd 662f 963c
00000150: 4d4f 8dbd 6a93 afbd f5fe 26bd 6657 febd
00000160: 2b82 d63c 2614 f2bd 310c e8bd bc1b 063d
00000170: ea2e 81bd 8f0c c4bd 1845 1ebd 426f 633d
00000180: 7dbe 01bd e53f b4bd a825 f7bd ce2e 60bd
00000190: 0e66 a9bd 6ca0 8cbd c8a7 bfba dbbf abbd
000001a0: 40ed e0bc ae60 2dbe 54ed 59bd e928 a5bd
000001b0: ea9e a2bd fec8 2bbe 57c1 61bd 2398 24be
000001c0: 5d6e 39bd d646 3c3d fc6d b2bd 6e99 ecbd
000001d0: 01ff 8cbd 590e 0ebd 71af 51bd 694c 06be
000001e0: b233 1c3c 32dc 65bd 325d b03c f2e3 adbd
000001f0: f08c 80bd efbf fd3a c286 82bd 9083 3a3d

weight f4 [50, 128]
-0.08317434 0.015546686 0.065054536 0.032319553 0.030226953 -0.12089317 -0.10022201 -0.107899986
0.1631021 0.094211236 -0.101637535 -0.08095402 0.07378999 -0.03377644 0.006932474 0.031725734
0.041369963 -0.07521456 -0.03580708 0.13086365 -0.032658327 0.025873698 -0.055697136 -0.016140265
-0.07794319 0.013203594 -0.0262562 -0.0289745 0.05110974 0.15862624 0.08855059 -0.01120602
-0.08721169 0.08314831 0.018861987 0.047970854 0.08213655 0.124329284 -0.08261362 -0.08825448
-0.05367413 0.023847701 0.064693116 0.052821446 0.31282073 0.026678542 0.085175805 -0.040804032
0.076855324 0.04595258 -0.013286255 0.02113142 -0.08200448 -0.02230326 -0.16744086 -0.023850106
-0.018197767 -0.042074367 -0.054974858 0.17864764 0.020442873 0.05515904 0.10248873 -0.0053752586
-0.008281077 0.0111856805 0.06880202 -0.0066350447 -0.0665267 0.15140158 -0.009925659 -0.03407444
-0.02393543 0.10104804 -0.109388426 -0.06461738 -0.088711485 0.1386979 0.017385237 0.012410271
-0.124532074 -0.1095397 0.055216037 -0.10867492 0.07139156 0.05109764 -0.06382658 0.033365194
-0.059127767 -0.13331926 0.13186532 -0.081262596 0.066454016 -0.04597919 -0.04347046 -0.27683312
-0.021425806 -0.02203773 -0.06166575 -0.10733593 -0.077954896 0.0045888484 -0.18859701 -0.077857785
0.055529065 -0.13728139 0.15203723 -0.043919228 0.15228347 0.028787455 -0.0016369298 0.12681212
0.010404559 0.02926319 0.0683629 -0.08790184 -0.13502418 -0.118212126 -0.22826502 0.008977222
0.033540674 -0.101380676 0.120375216 -0.056228817 -0.021829925 0.081431985 -0.11052527 -0.24193622
0.09768089 -0.023720156 -0.027309692 -0.08639276 0.052758683 0.0044433726 -0.17620964 0.014753507
-0.021408478 0.1868501 0.3979991 0.040778335 0.18469621 0.07157942 -0.048943743 0.07071251
-0.1396542 -0.005075204 0.08982217 -0.08186299 0.13948956 0.03505243 0.027621752 0.008077418
-0.033501253 0.06574215 0.056253634 -0.016892383 0.014017122 0.07071795 -0.04459528 0.014853822
0.06434082 -0.024609953 0.21654187 -0.015208706 0.18977904 0.024623241 0.04321116 -0.27967247
0.012095995 -0.334295 -0.06601362 -0.21131963 -0.026968919 0.17025065 -0.09726292 0.09948174
-0.024109263 -0.16011022 0.031197378 0.35311362 -0.06844948 -0.048484955 0.23677588 0.009186024
-0.04506143 0.23895116 -0.020849278 0.0100714825 0.041918613 0.03707166 0.060053643 -0.035938833
-0.20114331 -0.038374294 0.07905546 0.021592831 0.052947175 -0.05254464 -0.032467715 -0.011097544
-0.13715509 0.18463029 -0.02100979 0.02942842 0.040464394 -0.31580073 -0.091564484 0.04977888
0.14541338 -0.19052285 0.07253479 -0.030706065 0.01552201 0.06603202 0.054393325 -0.0016387986
0.122830056 0.01962923 -0.013569595 0.096860275 0.16288313 0.069479786 0.04792741 0.20485303
-0.061089166 -0.293576 -0.094486065 0.15874071 -0.0068325186 -0.17704603 -0.017133236 -0.059817985
-0.09571909 -0.14363132 -0.26054397 -0.032341007 -0.05722932 0.0032048896 -0.0041584475 -0.17233348
-0.23816927 0.012279656 0.06272366 0.11302373 0.004395531 -0.008681178 -0.016527018 -0.20324
0.0017319189 -0.040519986 0.018466981 0.035612077 -0.049331263 0.100782424 0.052891225 0.025687221
00000000: 4f57 aabd 87b7 7e3c 503b 853d 8261 043d
00000010: 849e f73c d796 f7bd 3241 cdbd abfa dcbd
00000020: 3d04 273e d2f1 c03d 5727 d0bd 39cb a5bd
00000030: 351f 973d 2a59 0abd cf29 e33b d8f2 013d
00000040: 8d73 293d 170a 9abd 72aa 12bd 1f01 063e
00000050: bdc4 05bd 14f5 d33c ae22 64bd 9738 84bc
00000060: aea0 9fbd e353 583c 3e17 d7bc ee5b edbc
00000070: 7258 513d eb6e 223e 035a b53d 7499 37bc
00000080: 0b9c b2bd a949 aa3d 7484 9a3c 167d 443d
00000090: 3537 a83d 5aa0 fe3d 5431 a9bd c4be b4bd
000000a0: 68d9 5bbd 415c c33c d37d 843d 4d5b 583d
000000b0: 0a2a a03e f58c da3c a770 ae3d 2122 27bd
000000c0: 5366 9d3d c638 3c3d 98ae 59bc cd1b ad3c
000000d0: f7f1 a7bd 54b5 b6bc 9e75 2bbe 4c61 c3bc
000000e0: 7c13 95bc 2c56 2cbd 512d 61bd 68ef 363e
000000f0: d077 a73c 72ee 613d 9ce5 d13d f022 b0bb
00000100: 5bad 07bc 2544 373c 13e8 8c3d ca6a d9bb
00000110: 273f 88bd 0409 1b3e 3b9f 22bc a491 0bbd
00000120: 3c14 c4bc 46f2 ce3d 0a07 e0bd 1e56 84bd
00000130: 5eae b5bd d306 0e3e 7c6b 8e3c 7354 4b3c
00000140: ac0a ffbd 5a56 e0bd 362a 623d f590 debd
00000150: bd35 923d c24b 513d 83b7 82bd f1a9 083d
00000160: f52f 72bd d884 08be b407 073e 016d a6bd
00000170: 0b19 883d ad54 3cbd 150e 32bd 12bd 8dbe
00000180: 2c85 afbc 7888 b4bc 3a95 7cbd f1d2 dbbd
00000190: d1a6 9fbd 0d5e 963b 931f 41be e773 9fbd
000001a0: 7272 633d 7e93 0cbe a6af 1b3e a6e4 33bd
000001b0: 33f0 1b3e abd3 eb3c 408e d6ba 09db 013e
000001c0: e277 2a3c 5cb9 ef3c d901 8c3d e105 b4bd
000001d0: c743 0abe 3319 f2bd 4ebe 69be 3315 133c
000001e0: f261 093d aca0 cfbd 4887 f63d 3050 66bd
000001f0: acd4 b2bc d0c5 a63d 135b e2bd 21be 77be
00000200: eb0c c83d c650 c2bc 93b8 dfbc b0ee b0bd
00000210: 7d19 583d b699 913b 4d70 34be b2b8 713c
00000220: d560 afbc a255 3f3e 8ac6 cb3e 2f07 273d
00000230: 0121 3d3e 3b98 923d 3c79 48bd b8d1 903d
00000240: 8301 0fbe e64d a6bb b0f4 b73d c9a7 a7bd
00000250: 5ad6 0e3e 2393 0f3d 0347 e23c 2657 043c
00000260: 9c38 09bd d2a3 863d 366a 663d e561 8abc
00000270: 12a8 653c 93d4 903d 8aa9 36bd 725d 733c
00000280: 1fc5 833d d09a c9bc 27bd 5d3e f02d 79bc
00000290: 7055 423e aeb6 c93c 2ffe 303d 3b31 8fbe
000002a0: 482e 463c b728 abbe 2632 87bd 2c64 58be
000002b0: eced dcbc 3056 2e3e c831 c7bd 15bd cb3d
000002c0: ca80 c5bc eff3 23be a591 ff3c 4fcb b43e
000002d0: 3e2f 8cbd 2998 46bd 6075 723e fa80 163c
000002e0: 5692 38bd 9daf 743e 1bcc aabc dc02 253c
000002f0: dab2 2b3d 74d8 173d cffa 753d 9934 13bd
00000300: 83f8 4dbe 5d2e 1dbd d4e7 a13d 73e3 b03c
00000310: 23df 583d 0c39 57bd defc 04bd 79d2 35bc
00000320: 6272 0cbe b90f 3d3e b91c acbc df13 f13c
00000330: febd 253d a2b0 a1be 2986 bbbd f0e4 4b3d
00000340: 3fe7 143e 6c18 43be 1f8d 943d 498b fbbc
00000350: 0750 7e3c cc3b 873d 89cb 5e3d f5cc d6ba
00000360: 538e fb3d 7bcd a03c 0253 5ebc ae5e c63d
00000370: d6ca 263e 6b4b 8e3d 884f 443d fec4 513e
00000380: a238 7abd 984f 96be e981 c1bd ed8c 223e
00000390: 52e3 dfbb 8e4b 35be 005b 8cbc b403 75bd
000003a0: 5f08 c4bd 1714 13be 0566 85be 0178 04bd
000003b0: 4b69 6abd 2009 523b 9643 88bb 3078 30be
000003c0: a5e2 73be 9c30 493c 4375 803d fc78 e73d
000003d0: 6308 903b 803b 0ebc ab63 87bc 261e 50be
000003e0: 8e01 e33a 49f8 25bd 1148 973c f8dd 113d
000003f0: 940f 4abd 0467 ce3d 78a4 583d 026e d23c

bias f4 [50]
-0.07643038 0.11741908 -0.10280793 -0.052244354 0.043596137 -0.023442116 0.056321286 0.06894118
-0.07542459 0.00040045305 -0.0069818306 0.15180902 0.08939075 0.026230743 0.20847882 -0.03843819
0.037007052 0.026137784 -0.15962738 -0.11769332 0.073613465 -0.0668201 0.01603106 0.120234005
-0.008157422 0.026365688 0.036708992 0.08578374 -0.05889382 -0.004384425 -0.08947691 -0.10684427
-0.0410635 0.05634284 -0.040834013 -0.085585564 -0.045225725 0.04845487 0.06496747 0.1247963
-0.06008295 -0.07917319 0.0043273647 -0.021544166 0.0150820995 0.19855383 -0.0589178 0.017600536
0.07081241 0.015970817
00000000: 8887 9cbd 6a79 f03d f78c d2bd 2dfe 55bd
00000010: dd91 323d ae09 c0bc 26b1 663d 0931 8d3d
00000020: 3578 9abd e6f3 d139 d7c7 e4bb d373 1b3e
00000030: 7f12 b73d dbe1 d63c 797b 553e 5d71 1dbd
00000040: b594 173d e81e d63c 5c75 23be 3209 f1bd
00000050: a8c2 963d fad8 88bd 9253 833c 3f3d f63d
00000060: b5a6 05bc dbfc d73c 2b5c 163d 63af af3d
00000070: a53a 71bd 39ab 8fbb ac3f b7bd 2bd1 dabd
00000080: 3332 28bd c0c7 663d 9141 27bd 7c47 afbd
00000090: 9c3e 39bd 9d78 463d aa0d 853d 3495 ff3d
000000a0: 8a19 76bd 8e25 a2bd 91cc 8d3b 647d b0bc
000000b0: e91a 773c b251 4b3e cb53 71bd 002f 903c
000000c0: 1906 913d 3bd5 823c

weight f4 [10, 50]
-0.23241572 0.25800112 -0.35312712 0.3006621 0.09726928 0.03663017 0.16907322 0.12338377
-0.11022544 -0.3087257 -0.13967185 0.13503043 -0.053109255 -0.29856724 -0.06767805 -0.056359254
0.0009153037 -0.049181543 0.20719951 0.27055013 -0.59897375 0.07765886 0.30211928 -0.045705914
-0.2637463 0.091064855 -0.3861076 0.24924585 -0.012629106 -0.0319073 -0.039155427 -0.27920538
0.016613036 -0.021860067 0.1491875 -0.107263364 0.09228209 0.09481177 -0.046567876 -0.2511665
0.078777365 -0.3190761 -0.048374593 0.05727825 0.0049533327 -0.3419096 0.09052817 -0.015940448
-0.23416415 0.011444423 0.03594529 -0.121463224 -0.08235876 0.107953936 -0.02395502 0.026146187
-0.16918877 -0.47302678 -0.079781115 -0.27189377 -0.050168835 -0.017417353 0.045638103 -0.3158608
0.10427071 0.058489915 -0.0095911445 -0.013616072 0.111264594 0.12305853 0.22009899 0.014583233
-0.106736444 0.18617411 -0.0830646 0.04358538 -0.19495106 -0.28864706 -0.63796115 0.09124803
-0.15271856 -0.18838513 -0.04284179 -0.05225503 0.17420574 -0.14187561 -0.10187217 0.06324298
0.016490957 0.2754675 0.1751574 -0.2058661 -0.2227852 -0.21595256 0.07145277 0.36397818
-0.31981477 0.25460953 0.21720982 -0.015107258 0.2415063 -0.49637583 0.23424484 -0.0388198
-0.041751232 -0.1078137 0.18240298 -0.26502892 0.06679032 -0.11064523 -0.08077542 0.29684076
0.22338346 0.19895253 -0.40990254 0.055067405 0.039301615 0.098647214 0.037871793 0.10962723
0.069483206 -0.08539188 0.021469979 -0.45103803 0.17991908 0.09784039 -0.05944013 0.1822665
0.0341635 0.24713933 -0.018244969 -0.1577841 -0.14348811 -0.058878217 -0.018594122 0.04721907
-0.094115704 -0.0835005 0.0033649094 -0.16852969 -0.41126963 0.04687316 -0.07443975 0.2038586
0.16431814 -0.59905815 -0.23180154 -0.38648316 -0.17057201 0.08920457 -0.0031636981 0.15219514
0.01474683 -0.11537506 -0.055210494 -0.11602333 -0.24208361 -0.2787814 0.06741282 0.024850812
0.3359627 0.01130228 -0.5360278 -0.31787044 -0.15500057 0.105168775 -0.06606845 -0.13253893
0.20136826 -0.5483312 0.022492792 0.014204703 -0.09895729 -0.049003907 -0.21409327 0.12665099
-0.0133934505 -0.22028695 -0.052437216 0.053140383 -0.13453142 0.2103295 0.06255334 0.050497107
-0.0059275255 0.06279978 -0.013298672 0.08994631 -0.2260594 -0.32925203 0.18082023 0.11455616
0.15513511 -0.34474093 -0.09211384 0.13680515 0.122808285 0.1599343 0.0034530354 -0.043414734
0.027484432 0.26688698 0.19542637 0.082981735 -0.09449062 -0.067129835 -0.066940606 -0.398483
-0.04708466 0.1160891 -0.14238364 0.12780604 -0.1777846 0.18541123 0.291044 -0.15998927
-0.017693067 0.026693875 -0.3198725 -0.17386927 0.26778704 0.020002356 -0.28559586 -0.29473695
0.45829976 -0.08729819 0.2412591 0.01659737 0.09253997 -0.56105566 -0.06408053 0.2426808
0.051818274 0.17464808 -0.018693252 0.045171257 -0.023937546 0.045091223 0.2006328 -0.2929194
-0.06906628 -0.22480202 -0.33601135 0.14567274 0.15175635 0.2548941 -0.1574133 -0.060373165
-0.14400521 -0.049896415 -0.07679303 -0.14382564 -0.36695424 -0.35303244 -0.07381951 0.09066755
00000000: 63fe 6dbe b918 843e 14cd b4be 62f0 993e
00000010: 1e35 c73d 8409 163d 8821 2d3e a1b0 fc3d
00000020: e0bd e1bd 4c11 9ebe 2306 0fbe 6b45 0a3e
00000030: 1789 59bd cedd 98be ca9a 8abd f6d8 66bd
00000040: fef0 6f3a 9672 49bd 1c2c 543e 8c85 8a3e
00000050: 5856 19bf 9c0b 9f3d 61af 9a3e 2036 3bbd
00000060: c109 87be 3680 ba3d e5af c5be 4e3a 7f3e
00000070: 4fea 4ebc 3bb1 02bd 7161 20bd 02f4 8ebe
00000080: 1018 883c e213 b3bc 9cc4 183e e5ac dbbd
00000090: 64fe bc3d ac2c c23d f5bd 3ebd e598 80be
000000a0: 0756 a13d f15d a3be 7024 46bd 999c 6a3d
000000b0: 914f a23b c60e afbe d566 b93d 8b95 82bc
000000c0: bac8 6fbe 6481 3b3c 5e3b 133d b6c1 f8bd
000000d0: b6ab a8bd f416 dd3d 513d c4bc 8730 d63c
000000e0: d23f 2dbe 9130 f2be 4864 a3bd a935 8bbe
000000f0: d67d 4dbd d6ae 8ebc 05ef 3a3d 82b8 a1be
00000100: e28b d53d 1f93 6f3d 2d24 1dbc f215 5fbc
00000110: b1de e33d 1c06 fc3d a161 613e 83ee 6e3c
00000120: a398 dabd 6da4 3e3e c61d aabd 9586 323d
00000130: 40a1 47be 8cc9 93be 6c51 23bf 3fe0 ba3d
00000140: 4162 1cbe 08e8 40be df7a 2fbd 5f09 56bd
00000150: fd62 323e d747 11be 5ba2 d0bd 8985 813d
00000160: 0b18 873c 130a 8d3e 765c 333e 90ce 52be
00000170: ce21 64be ab22 5dbe d455 923d 595b ba3e
00000180: c3be a3be 2e5c 823e 406c 5e3e 6f84 77bc
00000190: 6d4d 773e f924 febe e1dd 6f3e 8301 1fbd
000001a0: 5703 2bbd 6ecd dcbd d9c7 3a3e dfb1 87be
000001b0: 5dc9 883d f799 e2bd 956d a5bd 83fb 973e
000001c0: a2be 643e 36ba 4b3e bfde d1be 5c8e 613d
000001d0: bbfa 203d 8d07 ca3d 741f 1b3d 3e84 e03d
000001e0: 364d 8e3d f0e1 aebd cfe1 af3c 75ee e6be
000001f0: b53c 383e 8b60 c83d 7e77 73bd 12a4 3a3e
00000200: 07ef 0b3d 1812 7d3e 7976 95bc 2892 21be
00000210: 8cee 12be 492a 71bd b352 98bc c968 413d
00000220: bcbf c0bd 4f02 abbd d085 5c3b 0c93 2cbe
00000230: ef91 d2be 12fe 3f3d de73 98bd 4fc0 503e
00000240: 0443 283e e05b 19bf 625d 6dbe 1fe1 c5be
00000250: 6eaa 2ebe e3b0 b63d 0c56 4fbb 0bd9 1b3e
00000260: b09c 713c c249 ecbd 6624 62bd a49d edbd
00000270: c4e4 77be 70bc 8ebe bc0f 8a3d ee93 cb3c
00000280: 4e03 ac3e 332d 393c 1e39 09bf eabf a2be
00000290: 78b8 1ebe ba62 d73d e54e 87bd 49b8 07be
000002a0: 7b33 4e3e 6f5f 0cbf ce42 b83c d8ba 683c
000002b0: 1faa cabd 52b8 48bd 443b 5bbe ccb0 013e
000002c0: 3470 5bbc e792 61be 68c8 56bd bba9 593d
000002d0: 9bc2 09be 9e60 573e f71b 803d 0ed6 4e3d
000002e0: b03b c2bb 2c9d 803d ace2 59bc c535 b83d
000002f0: 1e7c 67be b993 a8be f028 393e 6c9c ea3d
00000300: bddb 1e3e e281 b0be 2ea6 bcbd a616 0c3e
00000310: e982 fb3d d1c5 233e 524c 623b a6d3 31bd
00000320: 0827 e13c 69a5 883e da1d 483e 54f2 a93d
00000330: 4c84 c1bd 5e7b 89bd 2818 89bd f705 ccbe
00000340: d8db 40bd 1fc0 ed3d 04cd 11be 96df 023e
00000350: 2b0d 36be 71dc 3d3e b803 953e 3ad4 23be
00000360: 0df1 90bc 1dad da3c 54c6 a3be c90a 32be
00000370: 621b 893e fbdb a33c 9f39 92be c3e7 96be
00000380: 44a6 ea3e 65c9 b2bd a00c 773e 35f7 873c
00000390: 9985 bd3d 58a1 0fbf a73c 83bd 5181 783e
000003a0: 663f 543d f2d6 323e 9722 99bc 7f05 393d
000003b0: ac18 c4bc 93b1 383d af72 4d3e 88f9 95be
000003c0: 9f72 8dbd 8032 66be ae09 acbe 3c2b 153e
000003d0: 0466 1b3e 7b81 823e f430 21be da49 77bd
000003e0: 1a76 13be 2f60 4cbd aa45 9dbd 0747 13be
000003f0: 6de1 bbbe abc0 b4be af2e 97bd e9af b93d

bias f4 [10]
0.069377705 0.0152711505 -0.031527966 -0.17925118 0.16010848 0.250535 0.026896264 -0.15047759
0.017639358 -0.217989
00000000: e615 8e3d d933 7a3c 7823 01bd 9f8d 37be
00000010: 7af3 233e 2046 803e 8e55 dc3c cc16 1abe
00000020: 6a80 903c 8238 5fbe
